checkpoint_128_64_modelarchitecture.pth (torch_old, 54503 bytes, 6 tensors)

fc1.weight f4 [128, 37]
0	0x3e03583e	0.1282663
1	0xbdc52b5c	-0.09627411
2	0xbe0ff46c	-0.14058083
3	0xbd3c9a2e	-0.046045475
4	0x3da2a031	0.0794071
5	0xbda35677	-0.07975476
6	0x3d8dc34d	0.06922016
7	0x3e72e2cf	0.23719333
8	0xbc5d82ba	-0.013519937
9	0xbe8f5f2e	-0.28002304
10	0xbda7a1c6	-0.08185153
11	0xbde41cdb	-0.11138316
12	0xbc893b4c	-0.016751908
13	0xbe44e4ff	-0.1922798
14	0xbe90bea0	-0.28270435
15	0xbed2f1e1	-0.41200164
16	0x3c6c0305	0.014405017
17	0x3e47cd9b	0.19512026
18	0x3e1f03cc	0.15528792
19	0xbe1f20fe	-0.1553993
20	0xbe0d6b4f	-0.13810466
21	0x3e5ac6d4	0.2136491
22	0x3ce57a52	0.028012428
23	0x3d7bc991	0.061471526
24	0xbe9a9a21	-0.30195716
25	0x3b635aff	0.003469169
26	0x3d8e2ece	0.06942521
27	0xbd8ed9ae	-0.06975113
28	0xbce40240	-0.027833104
29	0xbe7a184e	-0.24423334
30	0xbea7e95f	-0.32795236
31	0x3e8e0b50	0.27743006
32	0xbd0d29de	-0.034463756
33	0xbd2f1767	-0.042746928
34	0xbeec58cf	-0.46161506
35	0xbe6637cc	-0.22482222
36	0x3b5c84e1	0.0033648538
37	0x3e8c1777	0.27361652
38	0xbe5754ee	-0.21028492
39	0x3e51a889	0.20474447
40	0xbe199b8e	-0.15000746
41	0xbf5f906f	-0.87329763
42	0x3d53ab05	0.05167677
43	0xbe5c86e5	-0.21535833
44	0xbd6de01f	-0.058075067
45	0x3cabf4d5	0.020990768
46	0x3d8dbab3	0.06920376
47	0x3db7efa2	0.08981253
48	0x3bae9503	0.005327822
49	0xbb88704d	-0.004163778
50	0x3e2bfece	0.16796419
51	0x3e3fabe3	0.18717913
52	0x3e1a9db8	0.15099227
53	0xbe2ce5b5	-0.16884501
54	0x3e15f9d0	0.14646077
55	0xbd30307f	-0.043015
56	0xbe62887c	-0.22122377
57	0xbd7227d8	-0.05912003
58	0xbcd64e81	-0.02616048
59	0xbd4cfdf2	-0.05004687
60	0xbcfd9d98	-0.030958936
61	0xbd4078e2	-0.046990283
62	0xbdbdc506	-0.09266095
63	0x3cc7d9bd	0.024395818
64	0x3e09c71c	0.1345486
65	0x3d0ea682	0.034826763
66	0x3d0764c6	0.03305509
67	0x3d052fda	0.032516338
68	0x3dd4afa6	0.10385065
69	0x3e2a8397	0.1665176
70	0x3ceb82ed	0.028748954
71	0xbde2596c	-0.11052212
72	0xbbe32149	-0.006931458
73	0x3bec745a	0.0072160186
74	0x3cbe9cdf	0.023268161
75	0x3d88841d	0.066658236
76	0x3e0dd53a	0.1385087
77	0x3d2679bf	0.04064345
78	0x3d692b1a	0.05692587
79	0xbe9d32f6	-0.30702943
80	0xbbe27ee6	-0.0069121
81	0x3e536771	0.20644929
82	0xba53ccbb	-0.00080795184
83	0xbd9a19ee	-0.07524477
84	0x3ec05d54	0.37571204
85	0xbee31a2f	-0.44355914
86	0xbeee1d3f	-0.46506688
87	0xbe2bdd43	-0.16783623
88	0xbf78b151	-0.97145563
89	0xbdd856ec	-0.10563454
90	0x3bf46db8	0.0074593686
91	0x3dd2ed02	0.10299112
92	0x3e00366d	0.12520762
93	0x3e3183b5	0.17335398
94	0xbd47f0bf	-0.048813578
95	0xbe435297	-0.19074474
96	0x3e00fdd7	0.12596832
97	0xbc3c3371	-0.011486874
98	0xbe50abf5	-0.20378096
99	0x3c52fa69	0.012877085
100	0x3db18950	0.086687684
101	0x3e0d7c44	0.13816935
102	0xbd81e89f	-0.06343197
103	0x3d9d2e55	0.07674853
104	0xbe8ffa5c	-0.28120697
105	0x3d9654ad	0.073403694
106	0xbe4f529d	-0.20246358
107	0x3c078a23	0.00827268
108	0xbd129def	-0.03579515
109	0x3bfa5552	0.0076395655
110	0xbc1f7373	-0.009732115
111	0x3ec94016	0.39306706
112	0xbf381347	-0.71904415
113	0xbedc0e19	-0.42979506
114	0xbe99bde7	-0.30027696
115	0xc00065ef	-2.0062215
116	0xbdb90db7	-0.09035819
117	0x3cd9d400	0.026590347
118	0x3df4cd9d	0.1195328
119	0x3e0e927d	0.13923068
120	0x3e6d1cec	0.23155564
121	0xbd9b4cf5	-0.07583038
122	0xbd04a945	-0.03238799
123	0xbc8e9476	-0.017404776
124	0x3cd32a7a	0.02577709
125	0xbce37980	-0.027767897
126	0xbd65a953	-0.056069683
127	0x3dd8028a	0.10547359
128	0xbccd2fa6	-0.025047135
129	0xbda17ee4	-0.078855306
130	0xbe04e3d5	-0.12977536
131	0x3ce63c9b	0.02810507
132	0xbd08b9e1	-0.033380393
133	0x3cb8ffd5	0.022582928
134	0x3dc079b3	0.09398212
135	0x3dd5ba9f	0.10435986
136	0xbde3a11e	-0.11114715
137	0x3dc3d11f	0.09561371
138	0x3d9bf532	0.07615127
139	0x3e8314cc	0.25601804
140	0x3e84243b	0.25808892
141	0x3d131878	0.035912007
142	0x3de1ffb6	0.11035101
143	0x3d9d7161	0.07687641
144	0xbc97b86c	-0.018520556
145	0x3c3f3d0b	0.011672269
146	0xbb8240a8	-0.003974993
147	0xbb3fb020	-0.0029249266
148	0xbe1910e1	-0.14947845
149	0x3df4ed8e	0.119593725
150	0xbdc882c1	-0.09790564
151	0xbedde38b	-0.43337664
152	0xbd7bc6cc	-0.061468884
153	0xbe3319a0	-0.17490244
154	0xbe2178f6	-0.15768799
155	0x3e7b4ef6	0.2454184
156	0xbe995ad7	-0.29952118
157	0xbf57e785	-0.84337646
158	0xbc9f3555	-0.01943461
159	0x3cf8cb3e	0.03037035
160	0x3d715f81	0.05892897
161	0xbe88399e	-0.26606458
162	0xbdb2b200	-0.08725357
163	0x3d0aa5b2	0.033849426
164	0xbd55826d	-0.052126337
165	0x3d197993	0.037469458
166	0xbefb4f6b	-0.4908403
167	0xbebc33a8	-0.3675816
168	0xbe6ad062	-0.22931054
169	0x3e04ff3b	0.12987988
170	0x3dd702d2	0.10498585
171	0xbca8b097	-0.020592017
172	0xbc9367e7	-0.01799388
173	0xbddd1e0d	-0.10796747
174	0xbeba913c	-0.3643893
175	0x3eb07237	0.3446214
176	0xbe8143b9	-0.2524698
177	0xbf5e9015	-0.869386
178	0x3e16ba7f	0.1471958
179	0xbeb0d67c	-0.3453864
180	0x3e31d34e	0.17365763
181	0xbeb28c71	-0.34872773
182	0x3e15cc2f	0.14628671
183	0x3d911841	0.07084704
184	0x3b13a3f6	0.0022528148
185	0xbbd80103	-0.0065919175
186	0xbd69f536	-0.057118617
187	0x3d9b0bc1	0.07570601
188	0xbe7e5d70	-0.24840331
189	0x3cfe3fb4	0.031036235
190	0x3e420abc	0.18949407
191	0xbe97033d	-0.29494658
192	0x3e1b809b	0.15185778
193	0xbea8c69d	-0.3296403
194	0xbf659827	-0.8968529
195	0xbcee1feb	-0.029067954
196	0xbd8bf51a	-0.06833859
197	0xbda451db	-0.08023425
198	0xbe3c6cf2	-0.18400934
199	0xbe012332	-0.12611082
200	0xbc82a5e1	-0.015948238
201	0x3ca7ed8e	0.020499017
202	0xbe7a844a	-0.24464527
203	0xbd936ae6	-0.07198124
204	0xbcfe75c8	-0.031062022
205	0x3dead89d	0.11467097
206	0xbc9e1c91	-0.01930073
207	0xbcbbc7ea	-0.022922475
208	0xbd6fd663	-0.058554064
209	0xbc186e42	-0.009303631
210	0xbccd03db	-0.025026252
211	0xbe9bed8e	-0.30454677
212	0x3e4631ca	0.1935493
213	0xbccbbe59	-0.024871038
214	0xbe94814c	-0.29004896
215	0x3e12f385	0.14350708
216	0xbe8a4d49	-0.2701209
217	0xbe5a7a86	-0.21335801
218	0x3d884aed	0.06654916
219	0xbfe823a3	-1.8135875
220	0x3bee6b97	0.0072760093
221	0x3abbd0f9	0.0014329246
222	0xbe50ca30	-0.20389628
223	0x3cd3f128	0.025871828
224	0xbcc5a3f7	-0.024126036
225	0xbc82f5e1	-0.015986385
226	0x3dd7930c	0.10526094
227	0xbe1979e9	-0.14987911
228	0xbe4cae60	-0.19988394
229	0xbc332674	-0.010934461
230	0x3dbc66cc	0.091992944
231	0x3df223ec	0.11823258
232	0x3d193728	0.037406117
233	0xbe12df53	-0.14343004
234	0x3e20891d	0.15677305
235	0xbded3c59	-0.11583776
236	0x3d17f0f0	0.03709501
237	0xbe752c6f	-0.23942731
238	0xbd5d5be7	-0.054042723
239	0xbc34711d	-0.011013296
240	0xbd70488b	-0.058662932
241	0x3dfb3b84	0.12267211
242	0xbdf2cc57	-0.11855381
243	0xbea134ca	-0.31485587
244	0x3e99d76d	0.3004717
245	0xbf17f39b	-0.5935609
246	0x3e61271b	0.21987574
247	0xbe0dd7ef	-0.13851903
248	0x3d1de3af	0.038547214
249	0xbdb6ec80	-0.089318275
250	0xbe7b2828	-0.24527037
251	0xb9b48050	-0.00034427876
252	0xbd4bcf43	-0.049758207
253	0xbcb7bce2	-0.022428934
254	0x3da4cb56	0.08046596
255	0xbf09dc89	-0.53852135

fc1.bias f4 [128]
0	0x3c2e53ec	0.010640126
1	0x3dea77e7	0.11448651
2	0xbd804571	-0.06263245
3	0xbd54f0df	-0.051987525
4	0x3d558d2a	0.052136578
5	0xbdb88fc8	-0.09011799
6	0xbc809bce	-0.015699293
7	0x3d7842fe	0.060610764
8	0xbe61c8e0	-0.22049284
9	0x3e264e3c	0.16240782
10	0xbdf2222c	-0.11822924
11	0x3c893afc	0.016751759
12	0xbe1274b7	-0.14302336
13	0xbe08e04c	-0.13366812
14	0xbd438b5f	-0.047740337
15	0xbd5012a3	-0.050799023
16	0x3cc8c0fd	0.024506086
17	0xbd501cda	-0.050808765
18	0xbd52b6c2	-0.051443823
19	0xbb926ec0	-0.004468769
20	0xbe0f3f40	-0.13988972
21	0xbc8e96ec	-0.01740595
22	0x3e0a6413	0.13514738
23	0xbd2a3bda	-0.041560985
24	0xbd2c2941	-0.04203153
25	0x3e43a44a	0.1910564
26	0x3dfe3127	0.12411719
27	0xbd835da3	-0.06414344
28	0xbe028ec2	-0.1274977
29	0xbe4e9e67	-0.20177613
30	0x3db2d095	0.0873119
31	0x3d72cca3	0.059277188
32	0xbd8318e4	-0.06401232
33	0x3bdac2e0	0.006676063
34	0x3d75e4a6	0.06003251
35	0xbe2b8160	-0.16748571
36	0xbca60069	-0.020263867
37	0x3cbb5b64	0.022870727
38	0x3cc07b7d	0.023496384
39	0x3a05cd18	0.0005104109
40	0x3cb0d846	0.021587502
41	0x3e26994e	0.16269419
42	0x3dfbc822	0.12294032
43	0x3d043934	0.032281116
44	0xbc109906	-0.008825546
45	0xbe14c442	-0.14527991
46	0x3c4a52d4	0.012348849
47	0xbe19fdeb	-0.15038268
48	0xbd9caac0	-0.076497555
49	0x3d4b5013	0.04963691
50	0xbccf50a9	-0.025307016
51	0x3d82f5a8	0.063945115
52	0xbd46aa3b	-0.04850219
53	0x3d81b3ee	0.06333147
54	0x3dedcab5	0.11610929
55	0x3d509293	0.050921034
56	0xbce5e1f2	-0.02806184
57	0xbcabc6a6	-0.020968746
58	0xbdb3ff8d	-0.08788977
59	0xbdca96b4	-0.098920256
60	0xbe013a1e	-0.12619826
61	0x3c9f51bb	0.019448152
62	0x3adb44bf	0.0016728862
63	0xbdf8b806	-0.12144475
64	0x3df6b05d	0.120453574
65	0xbce5511b	-0.027992776
66	0x3da63390	0.081153035
67	0xbdc8ed44	-0.0981088
68	0xbe389c78	-0.18028438
69	0xbe0f24f0	-0.13978934
70	0xbce3d82a	-0.027813036
71	0x39ad3599	0.00033037065
72	0x3d81df23	0.06341388
73	0xbe127b6c	-0.14304894
74	0xbdf319e0	-0.1187017
75	0xbda5deb1	-0.08099116
76	0x3e58b80c	0.21163958
77	0xbdd2c2ae	-0.102910385
78	0x3d622fb5	0.05522128
79	0x3d8f3677	0.0699281
80	0x3cdb71b5	0.026787618
81	0x3d3e05ff	0.046392437
82	0x3de8ad47	0.11361175
83	0xbe19690f	-0.14981483
84	0xbd527f06	-0.05139067
85	0x3e125f20	0.142941
86	0x3dcc7983	0.09984114
87	0xbe3f717a	-0.18695632
88	0x3d9b679d	0.07588122
89	0x3ce1a231	0.02754316
90	0x3df6cc2b	0.12050661
91	0xbdd6afaa	-0.10482724
92	0xbd96a313	-0.07355323
93	0xbe3ae410	-0.18251061
94	0xbd9c8c32	-0.07643928
95	0x3e0273e9	0.12739529
96	0xbd768269	-0.060182963
97	0xbe491d21	-0.19640018
98	0xbdcd0ed8	-0.10012597
99	0x3dba5124	0.090975076
100	0xbe01bd38	-0.12669837
101	0xbe579f45	-0.2105685
102	0x3e50726a	0.20356146
103	0x3e299f6d	0.16564722
104	0xbe7560bd	-0.23962684
105	0xbe3c2d4a	-0.18376651
106	0xbe0e7f67	-0.13915788
107	0x3e0363d0	0.12831044
108	0xbe1f2870	-0.1554277
109	0xbd2d5520	-0.04231751
110	0x3da44c65	0.080223836
111	0xbd9ee293	-0.07758059
112	0xbe4f63f7	-0.20252977
113	0xbd8ed5fb	-0.06974407
114	0xbc716146	-0.014732664
115	0x3e276dbf	0.16350459
116	0x3d4d1e13	0.05007751
117	0x3e4c4082	0.19946483
118	0x3e153c5f	0.14573811
119	0x3d112a3b	0.035440665
120	0x3bc3518e	0.00596065
121	0x3b8d6f2a	0.0043162303
122	0x3c411199	0.011783981
123	0xbe41d159	-0.18927516
124	0xbdff7f87	-0.12475496
125	0x3e1f4483	0.15553479
126	0x3e01d306	0.12678155
127	0x3d52d29b	0.05147038

fc2.weight f4 [64, 128]
0	0x3b2e4340	0.0026590377
1	0xbd00203b	-0.031280737
2	0xbe2dcd8d	-0.16972943
3	0x3e8882a0	0.2666216
4	0x3deb5019	0.11489887
5	0x3cfbec37	0.030752284
6	0xbd69ccfd	-0.057080258
7	0x3e22649d	0.15858693
8	0x3dedced9	0.11611719
9	0xbd9d3f77	-0.076781206
10	0x3cf9aa25	0.030476639
11	0x3e3394e3	0.17537265
12	0x3debef3f	0.11520242
13	0x3b89ad67	0.0042015794
14	0xbdcbabc3	-0.0994487
15	0x3d8a5d3d	0.06756065
16	0x3b8cf83b	0.0043020523
17	0xbdf0f962	-0.11766316
18	0xbe715bc7	-0.23570167
19	0xbd6725d0	-0.056432545
20	0x3d1584f1	0.036503736
21	0x3e0132df	0.12617062
22	0xbe2aacab	-0.1666743
23	0x3dfe6651	0.12421859
24	0xbe86453e	-0.26224703
25	0x3bc69df5	0.0060613104
26	0xbd1d0b64	-0.03834094
27	0xbdd9830b	-0.106206976
28	0xbc2a4802	-0.010393145
29	0x3e29a273	0.16565876
30	0xbd817595	-0.06321255
31	0x3e32f66a	0.17476812
32	0x3ca2b666	0.019862365
33	0xbe0266a5	-0.12734468
34	0x3da2c118	0.07946986
35	0x3bcc3479	0.006231841
36	0xbe558004	-0.20849615
37	0xbd4255a5	-0.04744496
38	0x3e92a0b4	0.28638232
39	0xbbd9779a	-0.006636572
40	0x3e4ce43b	0.20008938
41	0xbd3f59ad	-0.04671638
42	0x3e1a1c1b	0.15049784
43	0x3c6b0440	0.014344275
44	0xbe63de67	-0.22252809
45	0xbdf31a30	-0.11870229
46	0xbc75db11	-0.015005843
47	0xbe38a6df	-0.18032406
48	0xbc2c4b37	-0.0105159795
49	0xbcafdfd7	-0.02146904
50	0xbe62f15c	-0.22162384
51	0xbda4ca1e	-0.08046363
52	0xbdac41b9	-0.08410973
53	0x3e9ef867	0.3104889
54	0x3d15d25b	0.036577564
55	0xbdc4b9e3	-0.096057676
56	0x3e55543e	0.20832917
57	0xbddd06b7	-0.107922964
58	0x3b2e3a01	0.0026584866
59	0x3e169bb3	0.14707832
60	0x3df576a2	0.11985518
61	0x3d9b5b25	0.07585744
62	0xbe042f4b	-0.12908666
63	0x3e2b5221	0.16730548
64	0xbd7fa869	-0.062416468
65	0x3d17bc35	0.037044723
66	0x3afbc0d9	0.0019207253
67	0x3d572a57	0.052530613
68	0x3da5c9b5	0.08095113
69	0xbcbcda42	-0.023053292
70	0x3daf5c9d	0.085625865
71	0x3d95a51b	0.07306882
72	0x3c9c3d52	0.019072209
73	0xbced8cf5	-0.028997878
74	0xbeaaa18a	-0.3332637
75	0xbddd68ef	-0.1081103
76	0xbde39958	-0.111132324
77	0xbd889127	-0.066683106
78	0xbc0544a8	-0.008134045
79	0x3d75c21f	0.05999958
80	0x3c6e7b4a	0.014555762
81	0xbe0bbfb0	-0.13647342
82	0x3e501587	0.20320712
83	0x3c06b048	0.00822074
84	0xbe08a7be	-0.13345239
85	0x3cc09c44	0.023512013
86	0x3da926f0	0.0825938
87	0xbd0b6e1b	-0.03404055
88	0x3e88f312	0.26747948
89	0xbd09b320	-0.033618093
90	0xbdcd2e96	-0.10018651
91	0xbdbdc584	-0.09266189
92	0xbd03163c	-0.032003626
93	0xbe683f10	-0.22680306
94	0x3dbd8e80	0.09255695
95	0xbc758fe9	-0.014987924
96	0xbea0b35d	-0.31386843
97	0xbdf249bc	-0.1183047
98	0xbeb10e8e	-0.34581417
99	0x3e2d4d5c	0.16924042
100	0x3d87ad06	0.066247985
101	0xbe0fe46a	-0.14051977
102	0xbc1951f8	-0.009357922
103	0xbd381361	-0.044940356
104	0xbd8aa4d0	-0.06769717
105	0xbe518fb0	-0.20464969
106	0x3d1aae14	0.03776367
107	0xbd627260	-0.055284858
108	0x3dab4ca6	0.08364229
109	0xbd493c61	-0.049129847
110	0xbc8a3af9	-0.016873823
111	0x3cfafb2d	0.030637348
112	0xbe5efc95	-0.2177604
113	0xbd3635a4	-0.04448475
114	0xbca56e3e	-0.02019417
115	0xbd5f4d6f	-0.054517206
116	0x3c90d1e7	0.017678214
117	0x38b2dc5f	8.528749e-05
118	0x3d525cf7	0.05135819
119	0xbd1ec0df	-0.038758155
120	0x3d8813d5	0.06644408
121	0x3dbb42b0	0.09143579
122	0x3dd1f8ee	0.10252558
123	0x3bb784d6	0.005600552
124	0xbdf8e78a	-0.121535376
125	0xbe01e2e0	-0.12684202
126	0x3c45371f	0.012037068
127	0xbd5051b9	-0.050859187
128	0x3e23b0a0	0.15985346
129	0x3e4ceeed	0.20013018
130	0xbd928048	-0.07153374
131	0x3d3ef962	0.04662455
132	0x3dc8f84a	0.098129824
133	0x3d859c40	0.06523943
134	0xbd7acf31	-0.06123275
135	0xbe31ef2f	-0.17376398
136	0xbbfa8086	-0.0076447157
137	0xbd4bb39d	-0.04973184
138	0xbe2d05f3	-0.168968
139	0x3cfb4a7d	0.030675167
140	0xbd7bc5ec	-0.06146805
141	0x3e0a2a37	0.13492666
142	0x3ce10141	0.027466418
143	0xbe3ab273	-0.18232135
144	0xbc8ff772	-0.017574046
145	0x3e9515ef	0.29118297
146	0xbd5de326	-0.054171704
147	0x3dbda688	0.09260279
148	0xbd7bbf97	-0.06146201
149	0x3d3d9e79	0.04629371
150	0xbcd09dad	-0.02546581
151	0xbdaec2b8	-0.085332334
152	0x3d6e424d	0.058168698
153	0xbd35ab6d	-0.044352937
154	0x3e809cd3	0.25119647
155	0xbe7fb5e1	-0.24971725
156	0xbe2faebd	-0.17156501
157	0x3e0627fd	0.13101192
158	0x3d28b25d	0.041185725
159	0x3e052eee	0.13006184
160	0x3decd455	0.115639366
161	0xbdac5f37	-0.08416598
162	0x3e2a5d80	0.1663723
163	0xbd6ce219	-0.05783281
164	0x3d2df929	0.042473946
165	0x3e3169bc	0.1732549
166	0xbd114f1b	-0.03547583
167	0xbe011dad	-0.12608977
168	0xbe6a5055	-0.22882207
169	0xbcd1358e	-0.025538232
170	0x3d52e512	0.05148799
171	0x3c8e115b	0.01734226
172	0x3e62678d	0.22109814
173	0x3c0998d0	0.00839825
174	0x3d4912ac	0.049090073
175	0x3b0323d6	0.0020010374
176	0xbe7eef5a	-0.24895993
177	0xbe324f13	-0.17412977
178	0x3e0b1183	0.13580899
179	0x3dd15992	0.10222162
180	0xbd9e9890	-0.07743943
181	0xbe083334	-0.13300782
182	0x3d088a2a	0.03333489
183	0x3e913b73	0.2836567
184	0x3d07e074	0.03317304
185	0x3da2dbbd	0.07952068
186	0xbe5e9dfd	-0.21739955
187	0x3e53dbe4	0.2068935
188	0xba8a0055	-0.0010528663
189	0xbea20956	-0.31647748
190	0xbd823837	-0.063583784
191	0xbd18a0cd	-0.037262727
192	0x3e13bc09	0.14427198
193	0xbdaa0ec4	-0.083035976
194	0xbd374fcd	-0.04475384
195	0x3d957c30	0.072990775
196	0x3e68c8cb	0.22732846
197	0xbdbeaa40	-0.09309816
198	0x3d88d369	0.06680948
199	0x3dc433bf	0.09580182
200	0xbdc0dd57	-0.09417217
201	0xbdf78301	-0.12085534
202	0xbd5ab5e7	-0.05339613
203	0x3d358348	0.044314653
204	0x3e6067ce	0.21914598
205	0x3e484248	0.19556534
206	0xbd8932ee	-0.06699167
207	0xbcdbac5b	-0.026815584
208	0x3d95e34f	0.07318746
209	0xbd79ef8f	-0.061019477
210	0xbe0ff28c	-0.14057368
211	0x3e091165	0.13385542
212	0xbdbae226	-0.09125166
213	0x3decf3b7	0.115699224
214	0xbd325649	-0.04353932
215	0x3d7f0366	0.0622591
216	0x3e9bf2e6	0.30458754
217	0x3cb3dd89	0.021956222
218	0xbe10d20b	-0.14142625
219	0xbe382179	-0.17981519
220	0x3b39185f	0.0028243286
221	0xbe04a6d2	-0.12954262
222	0x3cf2cdc9	0.029639142
223	0xba052ba2	-0.0005080049
224	0xbcd2de17	-0.025740666
225	0x3b0e97e5	0.0021758017
226	0xbd9117cc	-0.07084617
227	0xbe0bdec0	-0.13659191
228	0x3ddcb68a	0.10777004
229	0xbdf62024	-0.12017849
230	0xbb733d64	-0.003711545
231	0x3dd0fcfb	0.10204502
232	0xbdfb606e	-0.12274252
233	0x3cf8a168	0.030350402
234	0xbcde0ed3	-0.027106678
235	0x3d94e66d	0.07270513
236	0x3d945820	0.07243371
237	0x3d592c36	0.05302068
238	0x3d935afb	0.071950875
239	0xbe82b904	-0.2553178
240	0xbe764703	-0.24050526
241	0xbdce6500	-0.10077858
242	0x3da6fd67	0.081538014
243	0xbb488fa5	-0.0030603197
244	0xbdc34f64	-0.09536627
245	0x3b88cbd3	0.0041746884
246	0x3d2da968	0.042397887
247	0x3dbb8c31	0.09157599
248	0xbe0f94ba	-0.14021578
249	0xbe737d2f	-0.23778223
250	0xbd26f7c5	-0.040763635
251	0xbe13f319	-0.14448203
252	0x3d17b1e5	0.037034888
253	0x3c218b50	0.009859875
254	0x3e883d45	0.26609245
255	0x3d6e3bd6	0.058162533

fc2.bias f4 [64]
0	0xbdb3abf8	-0.08773035
1	0xbdd40a87	-0.103535704
2	0x3e7934e3	0.24336581
3	0x3c1b8b23	0.009493622
4	0x3e60960d	0.2193224
5	0xbd649a3b	-0.055811148
6	0x3c105eee	0.0088116955
7	0x3ded95aa	0.11600812
8	0xbe20f6cd	-0.15719147
9	0xbe22eeed	-0.15911455
10	0x3c5333cd	0.012890768
11	0x3dae7e64	0.08520201
12	0xbda37ea7	-0.079831414
13	0x3cadf4d7	0.021234913
14	0x3c1f602e	0.009727521
15	0x3c821067	0.015876962
16	0xbdaef512	-0.08542837
17	0xbdb1c675	-0.08680431
18	0xbddb6f01	-0.10714532
19	0xbcd24fa7	-0.025672747
20	0xbcf7e5da	-0.030260969
21	0x3d9aa7df	0.0755155
22	0xbdc66633	-0.09687462
23	0x3d883f47	0.06652694
24	0xbd8f06a2	-0.06983687
25	0xbd206ad4	-0.03916438
26	0x3edef4e2	0.43546206
27	0x3d1e8475	0.03870054
28	0xbcfd8245	-0.030945906
29	0xbd9ffb76	-0.07811634
30	0xbaf7d801	-0.0018908979
31	0x3ead9a25	0.33906665
32	0xbe25b088	-0.16180623
33	0x3d964534	0.07337418
34	0x3e238bf7	0.15971361
35	0xbdc17808	-0.09446722
36	0xbcfa26dc	-0.030536108
37	0x3ccb8f0b	0.024848482
38	0x3d59f3ad	0.053210903
39	0x3e3afcb4	0.18260461
40	0x3cb62e72	0.022238944
41	0x385fbaeb	5.3341424e-05
42	0xbdbb8f71	-0.09158219
43	0x3d89b98b	0.06724843
44	0x3ebc3082	0.3675576
45	0xbcd4cbdb	-0.025976112
46	0x3e6ecf5b	0.23321287
47	0xbdf7d6f8	-0.12101549
48	0x3e5e7b4f	0.21726726
49	0xbb979958	-0.0046264343
50	0x3c4ee44c	0.012627672
51	0xbd93a835	-0.07209817
52	0xbe33f7d4	-0.17575008
53	0x3ea8b4bb	0.32950386
54	0x3d8a2c5a	0.06746741
55	0x3ea5a336	0.32351083
56	0x3d12cefe	0.035841934
57	0x3ea854ae	0.32877105
58	0x3e44ad03	0.19206624
59	0xbc0e1b3a	-0.0086734835
60	0xbd2813c0	-0.04103446
61	0xbcb8d387	-0.022561802
62	0xbdd658c8	-0.104661524
63	0xbd585533	-0.052815627

fc3.weight f4 [4, 64]
0	0xbd2e1277	-0.04249808
1	0xbd8cea4c	-0.06880626
2	0x3e25ceb9	0.1619214
3	0x3d1e05b5	0.03857966
4	0x3d403539	0.046925757
5	0x3f05a8bd	0.522106
6	0x3e6ce43a	0.23133937
7	0x3ed98784	0.42486203
8	0xbe514c6e	-0.20439312
9	0xbde2bebf	-0.11071538
10	0x3e6f2d61	0.23357154
11	0x3e166d8f	0.14690231
12	0xbe242031	-0.16027905
13	0x3e8285a9	0.254926
14	0x3bbc56e5	0.0057476633
15	0xbe1cd837	-0.15316854
16	0xbe2f9888	-0.1714803
17	0xbec1ef39	-0.37877825
18	0xbec08652	-0.37602478
19	0x3eaeb209	0.34120205
20	0x3dae1604	0.08500293
21	0x3d2d6e1e	0.042341344
22	0x3e1c7927	0.15280591
23	0x3c93c31d	0.018037373
24	0xbd3dadaa	-0.046308197
25	0xbe92a734	-0.2864319
26	0x3e4437aa	0.19161859
27	0x3e818e83	0.2530404
28	0x3d71ece2	0.0590638
29	0xbe95d2a1	-0.2926226
30	0xbdf67da7	-0.12035685
31	0x3e2a6f18	0.16643941
32	0xbdab61cd	-0.083682634
33	0x3e3a78cb	0.18210141
34	0x3d027807	0.03185275
35	0xbd20fce8	-0.03930369
36	0xbda2ccfb	-0.07949253
37	0x3e2ecd69	0.17070545
38	0xbb8bdd08	-0.0042682923
39	0x3e0a28bc	0.13492101
40	0x3ebfcaa2	0.37459284
41	0xbe821d5a	-0.25413018
42	0xbd9cfce7	-0.07665425
43	0x3dcbe85e	0.0995643
44	0x3da2608b	0.0792857
45	0xbce53682	-0.027980093
46	0x3e025e94	0.12731391
47	0xbe89de60	-0.2692747
48	0x3dfebbbe	0.12438153
49	0x3e7c8f9b	0.24664156
50	0xbd8d6af5	-0.06905166
51	0x3ddc74ad	0.10764442
52	0xbe7e773f	-0.24850176
53	0x3e108e10	0.14116693
54	0x3dfda398	0.12384719
55	0x3dffceb8	0.124906
56	0xbdaa475e	-0.083143935
57	0x3df39dd3	0.11895337
58	0x3de7985e	0.113083586
59	0x3ce4fbca	0.027952094
60	0xbeeca8d5	-0.4622256
61	0x3e08c7ec	0.13357514
62	0x3d863eec	0.0655497
63	0x3e638a24	0.22220665
64	0x3b92ce9a	0.004480195
65	0xbd5dd805	-0.05416109
66	0x3e257639	0.1615838
67	0x3d968efd	0.073514916
68	0x3d816b19	0.063192554
69	0x3ed4889c	0.41510475
70	0xbcc6d9cb	-0.024273774
71	0x3e927b20	0.28609562
72	0xbddfdee2	-0.109311834
73	0x3ab600b1	0.0013885704
74	0xbf0b38ed	-0.54383737
75	0x3d80f157	0.06296032
76	0xbe25d3ab	-0.16194026
77	0x3e86391a	0.2621544
78	0x3d9e9094	0.0774242
79	0xbecf6b63	-0.40511617
80	0xbd6d10f4	-0.057877496
81	0xbd8ddf1b	-0.069273196
82	0x3d4819af	0.04885262
83	0x3e957bc7	0.29195997
84	0x3e21baed	0.15793963
85	0xbe057369	-0.13032307
86	0xbebe9f23	-0.37230787
87	0xbc2550ba	-0.0100900475
88	0xbe461eeb	-0.19347732
89	0xbe3b733c	-0.18305677
90	0x3e4c9d8e	0.19981977
91	0x3e95e799	0.29278257
92	0x3e7175b9	0.23580064
93	0xbec752a4	-0.38930237
94	0xbe05bbf9	-0.13059987
95	0x3d7c1ead	0.061552692
96	0xbe0cae0c	-0.13738269
97	0xbec1b1cb	-0.37830958
98	0xbf21a54d	-0.63142854
99	0xbe21e866	-0.15811309
100	0xbd97507a	-0.073883966
101	0x3eb3eb4e	0.3514046
102	0xbea7d125	-0.32776752
103	0x3dd5da93	0.1044208
104	0x3efb0817	0.4902961
105	0xbe3dc596	-0.18532404
106	0x3ca006c9	0.019534485
107	0x3e0b25f2	0.13588694
108	0x3e1da994	0.1539672
109	0x3e6372b8	0.2221173
110	0x3dc2a0ab	0.09503301
111	0x3e012c4d	0.12614556
112	0x3e0f2b5d	0.13981386
113	0x3e80fb39	0.25191668
114	0x3ca6e1ce	0.020371344
115	0xbeba5d67	-0.36399385
116	0xbe5d4e14	-0.21611816
117	0x3e041bb2	0.1290119
118	0x3e1cfabe	0.15330026
119	0x3d9ec229	0.07751877
120	0x3d801210	0.06253445
121	0x3dc558d6	0.09636085
122	0x3e0a8e17	0.13530765
123	0x3c39a8ea	0.011331776
124	0x3e257e91	0.16161563
125	0x3e834eaa	0.25645953
126	0x3e29b02d	0.16571112
127	0x3f0ba2ef	0.5454549
128	0x3d6bd17f	0.057572838
129	0xbe6208e6	-0.22073707
130	0x3e1b3abf	0.15159129
131	0x3e1493c3	0.14509492
132	0x3d7dd775	0.061973054
133	0x3f294ad2	0.6612979
134	0xbedfeb06	-0.43733996
135	0x3eadd636	0.33952492
136	0xbe19f6fe	-0.15035626
137	0xbe38d73b	-0.18050854
138	0x3e65992b	0.2242171
139	0x3dc63366	0.09677772
140	0xbe13a7bd	-0.14419456
141	0x3c17d98c	0.009268176
142	0x3dbbfe5f	0.09179377
143	0x3da299ba	0.07939477
144	0xbe6b0f3f	-0.22955035
145	0x3dfa8b26	0.12233572
146	0xbd752c7f	-0.059856888
147	0x3e16203f	0.14660738
148	0x3e3f10bc	0.18658727
149	0x3e3c065b	0.183618
150	0xbd8f0b4e	-0.06984578
151	0x3e28f5f7	0.16500078
152	0x3d86cf26	0.06582479
153	0xb9645137	-0.0002177403
154	0x3e2ec948	0.1706897
155	0x3e81416d	0.25245228
156	0x3d9c64a6	0.07636385
157	0xbe5f1cb8	-0.21788299
158	0x3e78beb7	0.24291502
159	0x3d7ec117	0.062195864
160	0xbe875f0a	-0.26439697
161	0xbe97294c	-0.29523695
162	0xbec3f260	-0.38270855
163	0xbf0c2545	-0.5474437
164	0xbb99748a	-0.004683082
165	0x3f0d4ac4	0.5519221
166	0x3d0b4244	0.033998743
167	0x3dfa26c6	0.12214427
168	0x3f090835	0.5352815
169	0xbe9171da	-0.28407174
170	0xbe895512	-0.26822716
171	0x3d2213a6	0.03956952
172	0x3da2cdd4	0.07949415
173	0xbe9ab54d	-0.30216447
174	0x3b1ecdc2	0.0024231528
175	0xbe64abae	-0.22331116
176	0x3d758aa5	0.059946675
177	0x3e5f526c	0.21808785
178	0x3e0a559c	0.1350922
179	0x3ecbecd3	0.3982912
180	0xbe770638	-0.24123466
181	0x3e2de36a	0.16981283
182	0x3d93271c	0.07185194
183	0x3e214d61	0.15752174
184	0x3e2adeb9	0.16686524
185	0x3e0a1376	0.13483986
186	0x3e048934	0.12942964
187	0xba79b901	-0.0009526164
188	0xbe8fdebc	-0.2809962
189	0xbd39999a	-0.0453125
190	0x3d3be7cb	0.045875352
191	0xbe9bb520	-0.30411625
192	0xbda54e31	-0.080715545
193	0xbdc088f8	-0.09401125
194	0x3e1f3def	0.1555097
195	0x3d108459	0.035282467
196	0x3d4203e5	0.047366995
197	0x3e1b9786	0.1519452
198	0xbe524f57	-0.20538078
199	0x3e785da9	0.24254479
200	0xbeaf9063	-0.34289846
201	0xbe46c6a2	-0.1941171
202	0xbe89bcb4	-0.26901782
203	0x3dac64b6	0.084176466
204	0xbea697ea	-0.32537776
205	0x3e39def3	0.18151455
206	0x3e303ce6	0.17210731
207	0x3e73b872	0.23800829
208	0xbc2a2c52	-0.010386543
209	0x3d9c59c2	0.076343074
210	0xbe82506a	-0.25451976
211	0x3ee308ff	0.443428
212	0x3ead423f	0.33839604
213	0x3e1321f4	0.14368421
214	0xbed17b96	-0.409146
215	0x3e7829dc	0.24234718
216	0xbe099aa3	-0.13437895
217	0x3cd9148f	0.02649906
218	0x3e39b067	0.18133698
219	0x3e815a32	0.25264126
220	0x3e6620d6	0.22473463
221	0xbeb72718	-0.35772014
222	0xbe93ef0c	-0.28893316
223	0x3e32e3ce	0.17469713
224	0xbddd5fa3	-0.10809257
225	0xbe84fa90	-0.25972414
226	0x3e91ea53	0.28499088
227	0xbdb95853	-0.0905005
228	0xbdabf935	-0.08397142
229	0xbcd67cc4	-0.02618254
230	0xbf170140	-0.5898628
231	0x3df0bf73	0.11755266
232	0x3cf3f856	0.029781502
233	0xbe3f33c9	-0.18672098
234	0xbd68cb60	-0.05683458
235	0xbdf375c8	-0.11887699
236	0x3ded65f0	0.11591709
237	0xbeb80acf	-0.35945746
238	0x3d85e1fe	0.06537245
239	0xbe589ff7	-0.21154772
240	0x3c9e831a	0.019349623
241	0x3e4efba9	0.20213188
242	0x3def4f31	0.116850264
243	0x3d811f3e	0.06304787
244	0xbe4ed4ba	-0.20198336
245	0x3da9c952	0.08290352
246	0x3e73da98	0.23813856
247	0x3e0c1fa4	0.13683945
248	0x3dc973cd	0.0983654
249	0x3db07821	0.08616663
250	0x3d793443	0.060840856
251	0xbe4e1a5c	-0.20127243
252	0x3e86254b	0.26200327
253	0x3dff0689	0.12452418
254	0xbe60ebae	-0.21964905
255	0x3f1434d1	0.5789309

fc3.bias f4 [4]
0	0x3e4d6add	0.20060296
1	0x3e53df60	0.2069068
2	0x3e89fd31	0.26950982
3	0x3e68afea	0.22723356
