checkpoint2.pth (torch_old, 28481 bytes, 6 tensors)

fc1.weight f4 [64, 37]
-0.14592618 -0.0147494795 0.13078083 -0.4072776 -0.088689536 -0.052799195 0.25094962 -0.4266946
-0.19173731 0.01304301 -0.18593892 -0.24720441 -0.05537392 -0.18529761 0.15199684 -0.214825
-0.04355694 0.19911021 0.28104848 0.16789475 -0.37290937 0.28071314 -0.10011249 0.07591124
-0.18249686 0.10311066 0.07837967 -0.0077043236 -0.89880186 -0.27451098 -0.14755206 -0.040457148
0.12417716 -0.34989035 -0.78389376 0.04837446 0.032828804 0.21930835 0.05034895 -0.08897669
0.03746627 -0.26774874 -0.0022506935 -0.23280494 -0.20830022 0.20562832 -0.59945357 -0.06749309
0.04047774 0.00993701 0.24748099 0.51126593 0.10785525 0.10828862 -0.07747818 0.04893974
-0.0655437 -0.0066102734 -0.1018274 -0.5032313 -0.03782926 0.07462892 -0.11656619 0.09597399
0.048820928 -0.20433281 -0.3327579 0.045846708 0.19707918 -0.031010449 0.22664657 0.29096425
0.10803389 0.010126325 0.11992195 0.1420782 0.1542051 -0.06839756 -0.2622828 -0.44508544
0.114712074 0.44020683 -0.24212012 -0.8498385 0.040170494 -0.0056750863 -0.0007513345 -0.018472105
0.12862779 -0.112160385 0.23772159 0.024453184 0.18310224 -0.18068202 0.05766155 -0.0029488618
-0.05484595 -0.13301767 -0.08824257 -0.57703286 0.54539144 0.119672485 -0.20228489 -0.58471066
-0.070665136 -0.064957455 -0.03734105 -0.12865983 0.18382256 0.029320372 0.03301467 0.08853014
-0.09067789 0.35267842 -0.29923815 -0.047380477 -0.30119768 0.14278439 0.33267987 -0.67673886
-0.49298948 -0.045142036 0.031739954 0.027495557 -0.37775934 -0.044654656 -0.04542974 0.06642659
-0.34238178 -0.22713204 0.0710094 -0.01095132 -0.32523894 -0.25345385 0.32710442 -0.38942906
-0.042794477 0.26124442 -0.0735692 -0.27846307 0.22414339 0.41041932 -0.2970443 -0.14977506
-0.93382794 -2.0039444 -0.060141053 -0.08479253 -0.024273021 -0.12623698 -0.5999376 -0.21627685
-0.34618574 -0.19973223 -0.15763721 0.20719975 -0.7446852 -0.32588622 0.107029885 -0.01654532
-0.46987852 -0.5190686 -0.94723356 -0.107058294 -0.6703806 0.04690554 -0.8035154 -0.030675175
-0.025310313 -0.4819609 0.20514408 -0.6195037 -0.35329658 0.22513217 -0.4174165 -0.4392703
-0.03221326 -0.271761 -0.28752473 0.11988602 0.17605583 0.11828055 0.40865123 0.16024159
0.03461968 0.009106169 -0.10653726 -0.01719413 -0.30534407 -0.48862657 0.081883475 -0.5644867
0.1637219 -0.69809467 -1.9384909 -0.24141596 -0.41750103 -0.037539754 0.19536093 0.018216955
0.08295355 -0.41271475 -0.12455979 -0.09302788 -0.35464278 0.1491591 -0.50825447 0.28553596
0.017378896 0.15586093 -0.27534184 -0.22887525 0.10920732 0.25506994 -0.35201716 -0.45626107
0.2632443 0.039352976 0.18799038 0.2436664 0.19026767 -0.031479973 0.25145742 -0.12749441
-0.12627546 0.01049753 -0.3705688 -0.04466127 0.051557057 -0.0472821 0.09434188 -0.022192813
0.16343962 0.068738766 0.057678226 0.05048312 0.39877242 -0.15209797 0.019814227 0.028448854
0.22713822 0.07633354 -0.05316371 -0.0661606 0.23295271 -0.017018486 0.16325448 0.023954704
-0.04942948 -0.19129822 0.10199629 0.18744189 0.011488615 -0.13553359 0.091452435 -0.12330008
00000000: ac6d 15be cda7 71bc 69eb 053e b186 d0be
00000010: dca2 b5bd f843 58bd 787c 803e b777 dabe
00000020: c956 44be 59b2 553c c666 3ebe 2723 7dbe
00000030: c3cf 62bd a8be 3dbe 0fa5 1b3e 16fb 5bbe
00000040: c368 32bd 8ce3 4b3e 96e5 8f3e 9aec 2b3e
00000050: faed bebe a2b9 8f3e c707 cdbd 5a77 9b3d
00000060: 75e0 3abe af2b d33d 8585 a03d 8d74 fcbb
00000070: e117 66bf b48c 8cbe e317 17be 65b6 25bd
00000080: 9850 fe3d d424 b3be 43ad 48bf 4c24 463d
00000090: 7f77 063d 5e92 603e b33a 4e3d 6939 b6bd
000000a0: 3b76 193d 5d16 89be 5f80 13bb 6b64 6ebe
000000b0: a74c 55be 3b90 523e ca75 19bf d139 8abd
000000c0: fdcb 253d d7ce 223c a86b 7d3e 53e2 023f
000000d0: 37e3 dc3d 6dc6 dd3d e1ac 9ebd 0975 483d
000000e0: c63b 86bd fe9a d8bb e28a d0bd c4d3 00bf
000000f0: dbf2 1abd 0cd7 983d 41ba eebd 038e c43d
00000100: 74f8 473d 9f3c 51be 3e5f aabe c2c9 3b3d
00000110: 20cf 493e a009 febc 0a16 683e 44f9 943e
00000120: df40 dd3d e3e8 253c a499 f53d f37c 113e
00000130: f1e7 1d3e 0514 8cbd ee49 86be 3de2 e3be
00000140: 2aee ea3d ca62 e13e 56ee 77be 048f 59bf
00000150: d189 243d 13f6 b9bb 34f5 44ba d052 97bc
00000160: 01b7 033e 58b4 e5bd 4a6d 733e 0b52 c83c
00000170: 277f 3b3e b504 39be 842e 6c3d b141 41bb
00000180: 26a6 60bd c935 08be 85b8 b4bd 6db8 13bf
00000190: c69e 0b3f d916 f53d c523 4fbe 99af 15bf
000001a0: e2b8 90bd 6a08 85bd eef2 18bd 67bf 03be
000001b0: fb3b 3c3e 4731 f03c 643a 073d 4a4f b53d
000001c0: 54b5 b9bd 4492 b43e be35 99be 0812 42bd
000001d0: 9536 9abe 1236 123e 0455 aa3e c23e 2dbf
000001e0: 1e69 fcbe dbe6 38bd c101 023d 5d3e e13c
000001f0: ac69 c1be cde7 36bd 8914 3abd aa0a 883d
00000200: aa4c afbe 4d95 68be 606d 913d 2a6d 33bc
00000210: b885 a6be b4c4 81be 3b7a a73e 3f63 c7be
00000220: 4349 2fbd d4c1 853e 73ab 96bd b692 8ebe
00000230: d885 653e 7b22 d23e 3116 98be a25e 19be
00000240: 590f 6fbf a040 00c0 7756 76bd b5a7 adbd
00000250: 37d8 c6bc 4444 01be 8395 19bf ae77 5dbe
00000260: 423f b1be 9b86 4cbe a66b 21be 2c2c 543e
00000270: b0a3 3ebf 8fda a6be 7c32 db3d 0d8a 87bc
00000280: eb93 f0be aee1 04bf e67d 72bf 6141 dbbd
00000290: 109e 2bbf 0620 403d 2fb3 4dbf 814a fbbc
000002a0: 9357 cfbc 94c3 f6be 4a11 523e cb97 1ebf
000002b0: 4ae3 b4be 0c89 663e 9eb7 d5be 09e8 e0be
000002c0: 0df2 03bd 4224 8bbe 7136 93be cd86 f53d
000002d0: fb47 343e 133d f23d bc3a d13e 5f16 243e
000002e0: 5ecd 0d3d 0b32 153c 3530 dabd b4da 8cbc
000002f0: 0f56 9cbe 432d fabe 86b2 a73d 3382 10bf
00000300: b7a6 273e 55b6 32bf 7820 f8bf bf35 77be
00000310: b2c2 d5be 49c3 19bd b20c 483e b93b 953c
00000320: 8de3 a93d 594f d3be 3419 ffbd 6785 bebd
00000330: bd93 b5be 2abd 183e f71c 02bf c531 923e
00000340: 305e 8e3c 029a 1f3e 9bf9 8cbe 465e 6abe
00000350: 16a8 df3d 8798 823e 983b b4be 0d9b e9be
00000360: f5c7 863e 9630 213d 8d80 403e af83 793e
00000370: 87d5 423e 25f1 00bd 07bf 803e e58d 02be
00000380: 5b4e 01be d5fd 2b3c 32bb bdbe bcee 36bd
00000390: 7e2d 533d e0aa 41bd 5136 c13d b4cd b5bc
000003a0: b75c 273e e9c6 8c3d 0140 6c3d 63c7 4e3d
000003b0: e62b cc3e 92bf 1bbe 7251 a23c 920d e93c
000003c0: ec96 683e c254 9c3d 31c2 59bd 357f 87bd
000003d0: 288b 6e3e 5a6a 8bbc 2f2c 273e a83c c43c
000003e0: 9176 4abd aee3 43be 6ee3 d03d c4f0 3f3e
000003f0: be3a 3c3c 51c9 0abe 6a4b bb3d c184 fcbd

fc1.bias f4 [64]
-0.014811196 -0.17194162 -0.06799795 -0.071298726 0.06429505 0.006324632 -0.16462041 -0.0718718
0.04105558 -0.39465755 0.108603865 0.22034043 0.18572631 0.3422658 -0.21539012 -0.15794498
-0.010893308 0.04048758 -0.05923468 -0.24123229 -0.052331265 -0.013891855 -0.04304597 0.029007463
-0.13203631 0.17113422 -0.031851586 -0.2239826 0.08627502 0.17879942 -0.10897921 -0.08489464
0.08621465 0.009804379 -0.1917564 -0.011414916 -0.115984 0.013303574 0.065516494 -0.17360093
-0.09281139 -0.2034242 0.020889893 -0.0124640595 -0.012774948 -0.17245883 0.1278815 -0.38550153
-0.4039217 -0.04944445 -0.18762264 0.028876489 -0.0389006 -0.014038078 -0.11881304 -0.032418475
0.14014776 -0.07566068 0.006083637 -0.19191383 -0.1474995 -0.01343758 0.2239609 0.0049178465
00000000: a9aa 72bc 7711 30be 8242 8bbd 1105 92bd
00000010: 20ad 833d dc3e cf3b 4192 28be 8631 93bd
00000020: e529 283d 8e10 cabe b46b de3d eca0 613e
00000030: 0a2f 3e3e 773d af3e 3a8f 5cbe 54bc 21be
00000040: d879 32bc 4ed6 253d 10a0 72bd 9905 77be
00000050: 4f59 56bd aa9a 63bc f950 30bd 0fa1 ed3c
00000060: 8734 07be cf3d 2f3e cf76 02bd b25b 65be
00000070: f5b0 b03d 3217 373e 7e30 dfbd 3edd adbd
00000080: 4e91 b03d 8ca2 203c ca5b 44be a105 3bbc
00000090: 0589 edbd 3cf7 593c 832d 863d 71c4 31be
000000a0: e613 bebd 6f4e 50be 4821 ab3c 0e36 4cbc
000000b0: 044e 51bc 0c99 30be 5ef3 023e 7560 c5be
000000c0: d3ce cebe 4386 4abd 2620 40be 638e ec3c
000000d0: 3c56 1fbd f7ff 65bc 4054 f3bd 3cc9 04bd
000000e0: e582 0f3e fdf3 9abd 3f59 c73b 0f85 44be
000000f0: 1c0a 17be 4c29 5cbc 0256 653e e325 a13b

fc2.weight f4 [64, 64]
-0.09048707 -0.20662376 0.06066415 0.23934019 0.25942037 -0.103121735 -0.23858237 0.12550361
-0.5948207 -0.15566869 -0.32176664 -0.37712166 -0.2893439 -0.010151554 -0.20976746 0.10036678
-0.09227183 0.05252452 -0.026535224 -0.5527203 0.053311136 0.065734684 0.035869338 0.009742029
-0.47368544 -0.54143095 0.3317443 -0.112621166 0.1809821 0.025281508 0.61363995 0.109180376
0.10433525 0.87554085 0.12941949 0.10330325 0.2231218 0.36308748 -0.35179216 0.20623405
-0.06501616 -0.045783106 0.027866725 -0.04588499 0.1193682 0.08356126 -0.110818796 -0.33082777
0.07959546 0.12274426 -0.5258192 -0.08314643 -0.094860554 -0.3325854 0.2010075 0.1785069
0.18292761 -0.10208552 -0.3038512 -0.030147767 0.08281412 -0.113659896 -0.33055735 -0.17318852
0.06919754 0.08014555 -0.060760863 -0.04611948 0.20663081 -0.061906874 -0.012424132 -0.17630498
0.09183579 -0.047600403 -0.15241133 0.3782397 0.009733231 0.045718398 -0.34689668 0.1474718
-0.033656947 -0.35884893 -0.005187066 0.14773408 0.04957035 -0.19193716 -0.21846825 -0.09964059
-0.587459 -0.24689922 -0.05710497 -0.0336984 0.15728033 0.12432392 0.41586825 -0.012791706
-0.095512986 0.04324739 -0.035132892 0.02966083 -0.15307543 0.2997456 -0.221613 -0.09249091
-0.31266376 0.1629673 -0.02268495 0.25430885 -0.15165114 0.03186666 -0.34569433 -0.029461877
-0.10385545 0.4133004 -0.3745901 0.071093984 -0.01971787 0.40833783 0.2611753 -0.35311455
-0.26218778 -0.15852082 0.20507869 0.0019300438 0.08210708 -0.2625001 0.19931078 -0.21076667
-0.5430323 -0.15957347 -0.0014985974 0.2476803 -0.22683346 -0.25760502 -0.04891357 0.19530353
0.019315882 0.15057999 0.26720384 0.003043176 0.12946647 0.022540426 -0.031039592 0.09875898
0.1410091 -0.3830952 -0.009537947 -0.45136318 -0.22503482 0.10676451 0.0029785598 -0.05917085
-0.8442618 0.32159486 0.13799655 0.01858706 -0.12854458 -0.082765244 0.16733846 -0.22318175
0.110442445 -0.28364918 -0.13431655 0.12195193 -0.067115 -0.24190855 -0.529834 -0.310313
-0.26220098 -0.12644948 0.16295926 -0.16836287 -0.27656516 -0.042381693 -0.03853641 0.13427967
-0.09857586 0.03957816 -0.004154747 0.089955576 0.035635382 -0.45024574 0.14692298 -0.038578745
0.46976227 -0.08362448 -0.1815284 -0.22727542 0.00438415 -0.21180567 0.34493163 0.07924159
-0.22774749 -0.028595412 0.22379169 -0.10644594 -0.3112253 0.2776413 0.08340173 -0.3838984
-0.07530688 -0.11382255 -0.18762736 -0.7001019 0.10289471 -0.117824785 -0.41177717 -0.8249353
-0.43436873 0.09503511 -0.33806404 -0.39395916 0.1674863 -0.29046556 -0.13062136 0.16064505
0.48216632 0.09625934 0.444374 -0.2055213 -0.67673934 -0.41067785 -0.16587888 -0.1663891
-0.24097227 -0.10879879 -0.07087151 0.12847793 0.19108383 -0.28922337 -0.2870406 -0.75908184
-0.108423404 0.1697608 0.3291804 0.0054520876 0.27682364 0.33377868 0.043804776 0.36530364
-0.22593296 -0.088090084 -0.23349555 -0.33345842 0.095714584 -0.4778824 0.3344863 -0.03172339
-0.13201128 -0.42157462 -0.27140924 -0.20837739 0.044844113 0.40211317 -0.11928613 0.41522482
00000000: 4951 b9bd 2e95 53be f97a 783d 9815 753e
00000010: bfd2 843e 7d31 d3bd f04e 74be 0584 003e
00000020: 2b46 18bf 9d67 1fbe 99be a4be 1716 c1be
00000030: e224 94be b452 26bc 48cd 56be 198d cd3d
00000040: 03f9 bcbd f323 573d 6660 d9bc 147f 0dbf
00000050: c75c 5a3d e89f 863d baeb 123d 089d 1f3c
00000060: e686 f2be 389b 0abf 64da a93e eda5 e6bd
00000070: 5f53 393e 2a1b cf3c 8217 1d3f f699 df3d
00000080: b8ad d53d 7223 603f 8b86 043e a890 d33d
00000090: 0b7a 643e 9ae6 b93e 1a1e b4be 052f 533e
000000a0: 3127 85bd 1187 3bbd c248 e43c e6f1 3bbd
000000b0: 5177 f43d 2a22 ab3d f7f4 e2bd 4262 a9be
000000c0: f202 a33d 5861 fb3d 169c 06bf ad48 aabd
000000d0: 4046 c2bd a248 aabe e9d4 4d3e 83ca 363e
000000e0: 6051 3b3e 3712 d1bd 6292 9bbe 73f8 f6bc
000000f0: 739a a93d 85c6 e8bd d03e a9be 5558 31be
00000100: 71b7 8d3d 5a23 a43d 62e0 78bd c8e7 3cbd
00000110: 0797 533e 1092 7dbd 968e 4bbc 4b89 34be
00000120: 6714 bc3d a4f8 42bd b711 1cbe a2a8 c13e
00000130: 2178 1f3c 3743 3b3d 719c b1be d902 173e
00000140: dedb 09bd 0cbb b7be 43f8 a9bb 9a47 173e
00000150: 480a 4b3d 2d8b 44be 24b6 5fbe 5e10 ccbd
00000160: b763 16bf 26d3 7cbe e7e6 69bd 5507 0abd
00000170: 180e 213e 8a9d fe3d afec d43e 4e94 51bc
00000180: 509c c3bd 2d24 313d 82e7 0fbd 45fb f23c
00000190: cebf 1cbe 4178 993e 85ee 62be e06b bdbd
000001a0: 7715 a0be e6e0 263e cad5 b9bc c534 823e
000001b0: 704a 1bbe 9d86 023d d9fe b0be 095a f1bc
000001c0: 2bb2 d4bd 1c9c d33e 46ca bfbe b999 913d
000001d0: 5f87 a1bc a811 d13e c5b8 853e 6ecb b4be
000001e0: 7a3d 86be 4853 22be 2600 523e 86f9 fc3a
000001f0: c227 a83d 6a66 86be 2018 4c3e 38d3 57be
00000200: 2a04 0bbf 3a67 23be 966c c4ba e89f 7d3e
00000210: 0847 68be cee4 83be 9859 48bd a6fd 473e
00000220: 573c 9e3c a431 1a3e f1ce 883e 0570 473b
00000230: dc92 043e b3a6 b83c be46 febc 2642 ca3d
00000240: b164 103e 0e25 c4be 0d45 1cbc 1319 e7be
00000250: 876f 66be 5aa7 da3d f133 433b 225d 72bd
00000260: 8b21 58bf 15a8 a43e f84e 0d3e e443 983c
00000270: 31a1 03be d380 a9bd c65a 2b3e c289 64be
00000280: a62f e23d 773a 91be 478a 09be efc1 f93d
00000290: 9773 89bd e0b6 77be 33a3 07bf 58e1 9ebe
000002a0: 353f 86be f97b 01be cbde 263e 5167 2cbe
000002b0: f399 8dbe 6d98 2dbd 5bd8 1dbd 9c80 093e
000002c0: 24e2 c9bd b51c 223d 8b24 88bb a13a b83d
000002d0: 68f6 113d 9c86 e6be fa72 163e bf04 1ebd
000002e0: ae84 f03e 5043 abbd 95e2 39be e3ba 68be
000002f0: eaa8 8f3b 96e3 58be e19a b03e 6a49 a23d
00000300: a336 69be ed40 eabc a629 653e 5400 dabd
00000310: ec58 9fbe 0027 8e3e 87ce aa3d 558e c4be
00000320: 7e3a 9abd cc1b e9bd 6321 40be e139 33bf
00000330: 76ba d23d 1f4e f1bd 75d4 d2be f62e 53bf
00000340: 9465 debe c5a1 c23d bb16 adbe 04b5 c9be
00000350: 8781 2b3e e7b7 94be 9bc1 05be 2380 243e
00000360: 81de f63e 9e23 c53d fd84 e33e 2d74 52be
00000370: ca3e 2dbf 5e44 d2be 27dc 29be e761 2abe
00000380: 6fc1 76be e6d1 debd 1525 91bd b88f 033e
00000390: 7bab 433e 1615 94be fcf6 92be 3053 42bf
000003a0: 170d debd c6d5 2d3e 558a a83e 6da7 b23b
000003b0: d4bb 8d3e 0ae5 aa3e a36c 333d 1409 bb3e
000003c0: f85a 67be 9368 b4bd 7519 6fbe 10bb aabe
000003d0: 0206 c43d 00ad f4be ca41 ab3e 63f0 01bd
000003e0: f72d 07be a1d8 d7be 27f6 8abe e260 55be
000003f0: 76ae 373d c7e1 cd3e 494c f4bd 5998 d43e

fc2.bias f4 [64]
-0.1808652 0.18526395 -0.001983276 -0.03318479 0.38534454 -0.22780062 0.0010545558 -0.050599158
0.45861372 0.85952985 -0.10133591 0.008136285 0.15673134 -0.25819826 0.2752365 -0.041153032
0.28969684 -0.080963574 -0.43167016 0.3816915 0.5224514 1.0056221 -0.03195876 -0.25797808
-0.11401924 -0.15751542 0.113337666 -0.08233759 0.2240893 -0.2712965 -0.1228717 0.21581763
-0.10987955 0.18849093 0.11038107 0.05475462 -0.15302773 -0.2780928 -0.32354128 -0.12183854
-0.18759473 0.97885084 0.79575026 -0.29336753 0.12914601 -0.38731107 0.73733294 0.08965295
0.24701189 0.09876505 -0.12468634 0.855964 -0.13523409 -0.4103863 0.35170126 -0.38266128
-0.2233515 -0.17492595 -0.1864839 0.1227884 -0.047084734 0.645721 0.07556974 -0.30968186
00000000: ba34 39be d5b5 3d3e daf9 01bb c6ec 07bd
00000010: e14b c53e 9144 69be 0539 8a3a 1041 4fbd
00000020: 6bcf ea3e 260a 5c3f 3489 cfbd 0d4e 053c
00000030: 2e7e 203e 9032 84be cceb 8c3e 1590 28bd
00000040: 2553 943e 3bd0 a5bd df03 ddbe 116d c33e
00000050: 60bf 053f 3ab8 803f 30e7 02bd b415 84be
00000060: eb82 e9bd b94b 21be 941d e83d 9ca0 a8bd
00000070: aa77 653e 60e7 8abe 28a4 fbbd 4cff 5c3e
00000080: 8808 e1bd c403 413e 780f e23d 6146 603d
00000090: 4db3 1cbe 2e62 8ebe 34a7 a5be 7c86 f9bd
000000a0: d518 40be f895 7a3f 4ab6 4b3f 4534 96be
000000b0: da3e 043e a34d c6be dac1 3c3f f79b b73d
000000c0: aff0 7c3e 5545 ca3d 8d5b ffbd 7520 5b3f
000000d0: ce7a 0abe 271e d2be 3012 b43e 2eec c3be
000000e0: 41b6 64be ca1f 33be a3f5 3ebe 7c78 fb3d
000000f0: ecdb 40bd f94d 253f 4fc4 9a3d 9f8e 9ebe

fc3.weight f4 [4, 64]
0.2001603 0.22802605 0.4341986 -0.20231478 0.17966186 -0.25624818 0.3731906 -0.38661993
0.2379269 0.26978675 -0.03756526 -0.2527865 0.1122778 0.33623046 0.15706764 0.31593567
0.2860495 0.43579724 -0.054238766 0.17956792 0.10596832 0.2946816 0.12809439 -0.17966264
0.17702731 0.5339007 -0.9537918 -0.03650171 0.31375065 -0.120903015 -0.68561476 0.06636178
-0.2696341 0.348284 0.31801608 0.2875292 -0.24557021 -0.37084514 -0.2020539 0.30957183
-0.14919803 0.28273815 0.20558713 -0.79067075 -0.100084275 -0.33062953 0.29835126 0.5294418
0.15613282 0.19988465 0.39113626 0.22648007 0.029324811 -0.182412 0.055125915 -0.131576
-0.30563045 -0.21034704 -0.19461492 0.13714035 -0.2212733 0.23292567 -0.19527897 -0.2626726
0.0063650156 0.1441071 0.30697498 -0.25965697 0.18463662 -0.17219946 0.3417513 -0.005190367
0.1683763 0.19151612 -0.061993197 0.01712441 0.31073684 0.20697927 0.098348215 0.11215433
0.26522362 0.04059771 -0.2612064 0.28717175 -0.012313459 0.38808694 0.19947019 0.016422573
0.2984369 0.54772896 -0.0820153 -0.3603168 0.130948 -0.012135806 -0.3596933 0.1273359
-0.22496748 0.21555777 0.15234102 0.3461107 -0.29626465 -0.06457508 -0.18324457 0.41716525
0.07559707 0.28473282 0.3049434 -0.15599163 -0.16756675 0.01581058 0.23050022 0.3766751
0.121177725 0.12956405 0.06730882 0.2340106 0.18789539 -0.1790588 0.12045366 -0.06853799
-0.33883315 -0.13071787 -0.010389489 0.076064706 -0.14846455 0.20038743 -0.037038032 -0.04946301
0.75462 0.13428572 0.05498043 0.25065273 0.31795576 0.2551626 0.34300843 -0.038285844
0.2633376 0.23127146 -0.4068662 0.11911276 0.1814555 -0.2590265 0.04966814 0.15513068
0.17051151 -0.48649105 -0.3084074 0.0152645195 0.15769804 0.34360865 0.026190534 0.095238045
0.32767975 0.41387725 0.095267855 -0.20647313 0.008707186 0.027736278 -0.24593203 0.07534209
0.064955786 0.07513619 0.33321646 0.29876423 -0.39069915 -0.3475275 -0.34107503 -0.2623339
-0.3238041 0.29397774 0.28297883 0.092176795 0.027060276 0.08034005 0.2560731 0.24863838
0.27681917 0.08037045 0.14910002 0.32953197 0.09227565 0.31132022 0.15527298 0.07490109
-0.89194316 -0.033321466 -0.022300022 -0.14312567 0.050951637 0.21339002 -0.19429332 -0.16690344
0.114678554 0.17292349 0.5216627 -0.32102284 0.16540702 0.10651929 0.23099017 -0.0662907
0.10027765 0.3286474 -0.2080383 -0.41511476 0.26590878 -0.06136951 0.15459642 0.23521675
0.17156836 0.3443746 -0.27779177 0.16969761 0.059820693 0.38896808 -0.099583656 0.12871654
0.17339052 -0.4745638 0.15373002 0.27861485 0.054131515 -0.36738315 0.44533122 0.23273963
-0.16971503 0.54389197 0.037768383 0.091253445 -0.25960207 0.11039418 -0.07217443 0.09901351
-0.8465873 0.30157262 0.2628631 0.06989577 0.2889942 -0.40471503 0.17571585 0.45544124
0.014403674 0.03413616 0.44852382 0.28976724 0.3430315 0.027290607 0.03108156 0.3370335
-0.13564129 -0.391861 -0.13709393 -0.13829464 -0.44061738 0.21060064 -0.16078411 0.06837789
00000000: d2f6 4c3e a97f 693e 474f de3e 9b2b 4fbe
00000010: 47f9 373e f632 83be d712 bf3e 0cf3 c5be
00000020: 1ca3 733e 7d21 8a3e 08de 19bd 3b6d 81be
00000030: e7f1 e53d 6626 ac3e 57d6 203e 52c2 a13e
00000040: 1475 923e d120 df3e 7829 5ebd a7e0 373e
00000050: eb05 d93d 82e0 963e 2d2b 033e 7cf9 37be
00000060: a646 353e b7ad 083f b32b 74bf d182 15bd
00000070: eda3 a03e 009c f7bd 7384 2fbf afe8 873d
00000080: 7b0d 8abe 4852 b23e 01d3 a23e 0737 933e
00000090: c276 7bbe 6adf bdbe 38e7 4ebe 3380 9e3e
000000a0: 5ec7 18be 0ec3 903e 6f85 523e 6669 4abf
000000b0: fcf8 ccbd 4648 a9be 7fc1 983e 7f89 073f
000000c0: 48e1 1f3e 90ae 4c3e 0343 c83e 64ea 673e
000000d0: 963a f03c 36ca 3abe b6cb 613d dcbb 06be
000000e0: 987b 9cbe 3765 57be 2249 47be 856e 0c3e
000000f0: 7895 62be 1184 6e3e 36f7 47be 067d 86be
00000100: 9f91 d03b d090 133e d32b 9d3e c2f1 84be
00000110: 6211 3d3e 0e55 30be 07fa ae3e f413 aabb
00000120: d66a 2c3e cd1c 443e 94ec 7dbd 7e48 8c3c
00000130: e618 9f3e 60f2 533e ca6a c93d 2bb1 e53d
00000140: 64cb 873e c949 263d d8bc 85be 2d08 933e
00000150: 64be 49bc 55b3 c63e ea41 4c3e a288 863c
00000160: b9cc 983e f737 0c3f a3f7 a7bd 727b b8be
00000170: 3c17 063e 42d5 46bc b829 b8be 5864 023e
00000180: e05d 66be 2dbb 5c3e 49ff 1b3e 6c35 b13e
00000190: 00b0 97be f13f 84bd 77a4 3bbe af96 d53e
000001a0: a3d2 9a3d 80c8 913e 8b21 9c3e 45bc 1fbe
000001b0: 9e96 2bbe 3185 813c 4008 6c3e 8fdb c03e
000001c0: 072c f83d 70ac 043e 35d9 893d 7aa0 6f3e
000001d0: a667 403e 315b 37be 69b0 f63d a55d 8cbd
000001e0: 8a7b adbe e8da 05be ad38 2abc d0c7 9b3d
000001f0: 1707 18be 5d32 4d3e 31b5 17bd ba99 4abd
00000200: c72e 413f 3282 093e 2933 613d 8e55 803e
00000210: 19cb a23e aca4 823e cd9e af3e 9ed1 1cbd
00000220: 30d4 863e 6dd2 6c3e c450 d0be 64f1 f33d
00000230: 78cf 393e 1f9f 84be d270 4b3d 94da 1e3e
00000240: 929a 2e3e 5b15 f9be 93e7 9dbe 0918 7a3c
00000250: 987b 213e 79ed af3e 888d d63c 2a0c c33d
00000260: a4c5 a73e b8e7 d33e cb1b c33d b16d 53be
00000270: 96a8 0e3c 3137 e33c 9bd5 7bbe f44c 9a3d
00000280: 8a07 853d 01e1 993d 599b aa3e a0f7 983e
00000290: b809 c8be 20ef b1be 63a1 aebe a150 86be
000002a0: a7c9 a5be 4084 963e 9ae2 903e 30c7 bc3d
000002b0: 83ad dd3c 5389 a43d 031c 833e 0f9b 7e3e
000002c0: 3ebb 8d3e 4399 a43d adad 183e 6ab8 a83e
000002d0: 04fb bc3d 5d65 9f3e e1ff 1e3e be65 993d
000002e0: 6356 64bf 177c 08bd 89ae b6bc 898f 12be
000002f0: aab2 503d ea82 5a3e d4f4 46be bce8 2abe
00000300: 97dc ea3d db12 313e b08b 053f 1b5d a4be
00000310: 7560 293e c926 da3d b088 6c3e 6bc3 87bd
00000320: 5e5e cd3d 7944 a83e fe07 55be ec89 d4be
00000330: 3225 883e 985e 7bbd 864e 1e3e a9dc 703e
00000340: 9eaf 2f3e de51 b03e b93a 8ebe 36c5 2d3e
00000350: 8b06 753d d326 c73e 84f2 cbbd 45ce 033e
00000360: 498d 313e 07fa f2be 676b 1d3e 9ba6 8e3e
00000370: 02b9 5d3d a519 bcbe 7402 e43e 4c53 6e3e
00000380: c7c9 2dbe 813c 0b3f 05b3 1a3d 16e3 ba3d
00000390: 90ea 84be 5816 e23d 30d0 93bd 98c7 ca3d
000003a0: f2b9 58bf ba67 9a3e fe95 863e 8325 8f3d
000003b0: 0cf7 933e cf36 cfbe dbee 333e 982f e93e
000003c0: 63fd 6b3c 5cd2 0b3d eaa4 e53e 5f5c 943e
000003d0: d3a1 af3e 8d90 df3c c19e fe3c a88f ac3e
000003e0: 8de5 0abe 01a2 c8be 5a62 0cbe 1c9d 0dbe
000003f0: 9a98 e1be b2a7 573e 97a4 24be b509 8c3d

fc3.bias f4 [4]
0.6468409 0.49436027 0.4828743 0.5119398
00000000: 5d97 253f ca1c fd3e 4d3b f73e 7d0e 033f
