checkpoint_training_modelarchitecture.pth (torch_old, 54593 bytes, 6 tensors)

fc1.weight f4 [128, 37]
00000000: 6cb8 183d b2a6 bc3c e278 34be ba52 233e
00000010: a08e 243c 6dfb c0bc 468a f13d 5508 8b3e
00000020: 7872 aabd 561c dcbe 3e57 67bd 7168 e7bd
00000030: 14b3 723c 56c8 88bc 1af4 b1be 3826 8ebe
00000040: bb31 df3d 1377 9a3d 4efd 9f3e 8cf2 a8be
00000050: 155b 3f3d 24a7 3e3e 37b3 36bc 5df6 4bbd
00000060: fbfd e2be e800 063e 9c53 6cbd 944d 8abc
00000070: 5872 a03d dcd3 c8be 36fc 43bd 8f2e 1e3e
00000080: a43b d83d d922 c9be df26 2abf f03d 8dbd
00000090: 14fe a73a f967 a63e f6c7 d1be 6690 863d
000000a0: db46 e4bd a686 8bbf cc74 d5ba ef34 79be
000000b0: 26ed b23c 4830 f739 184b a83c 4f17 023e
000000c0: eae7 edbd c89f 983c ed50 863e 401e 623d
000000d0: 6747 e53d 258c 52bd 40ad 9f3d fbbd 5e3a
000000e0: d0bd 3abe b4e4 a6bd 14ac 173d 5baf 33be
000000f0: 0b95 963d 790e 22bd 9ead e4bd b7ab 88bd
00000100: 01a9 483e 8949 b43d 9830 0f3c 5e7d 0abd
00000110: 4e23 503e 90fa df3d d001 553d 1c76 48bd
00000120: e5bb c43c 714e a5bb be70 923c 18fa e03c
00000130: 2122 6f3e 1a0d 9a3d c54f 883b cfa6 abbe
00000140: 3ba2 733d 5b6d 443e 9a82 953d 899c 68bd
00000150: 3c5f d23e c72b 85be 7829 0cbf 096c 87be
00000160: 6afd bebf 1379 3f3d e5f6 cebd f8ba f93d
00000170: e6c6 103e b442 173e fe8e 3bbd 35ca acbc
00000180: 8c30 093d e7e5 a7bd 927a 82be 367c 973c
00000190: 6cc6 bb3d 66f6 bd3d 8651 dd3d 361e 253e
000001a0: e50b 84be 859e 47bd e817 183c d6fa 013d
000001b0: a2a3 fcbd 24dd e3b9 f1c0 0bb9 612c dc3e
000001c0: 59b3 51bf 4227 2ebf 9a01 0fbf 2a02 23c0
000001d0: 117b aabd b411 293d 16db a53d b533 7d3e
000001e0: b7cc 1f3e b5cf eabd e150 01bb 7aff 0b3b
000001f0: 4721 813c a647 203d fa41 adbc 1418 a43d
00000200: f550 4ebc efca 6cbd f674 d3bc a7d2 75bd
00000210: 2e17 303d 2d33 9e3c 4cc9 d93d de0d e13d
00000220: 7af8 c9bd 6721 b13d c8f2 303d ba84 743e
00000230: 1f4d 773e 531e f1bb 9887 be3d de78 003e
00000240: ad90 c1ba e413 c83d 6ab2 5e3c 28ef 973a
00000250: d82c 83bd 7d68 32bd fa6a 163d 8a58 12bf
00000260: 6a5a 0fbe 7552 37be 522a 72be 0ea0 873e
00000270: 84d1 00be d179 8dbf 312a 953c f06b b93d
00000280: 0bfd 8c3d f361 05bf df04 0f3e 4c90 2b3d
00000290: c1fd 91bd f91d a23d 4f49 07bf 440f f5be
000002a0: 5554 6a3d 4e1d f13d 3c13 44be 5d50 0dbe
000002b0: bf11 dfbd f286 79bc 4e38 02bf a4ef bb3e
000002c0: dfeb 36be ca0f 7cbf 969e 0b3e dd2b 1bbe
000002d0: 4a3a 753d de4c e5be 2534 a4bd 342d be3b
000002e0: 8cf0 6d3c 76d1 863b a9c5 57be 56d5 0d3e
000002f0: d429 6fbe 4174 bf3c cdaf 303e 3d03 97be
00000300: 5722 9e3d b377 d4be 1bd1 8ebf 19af 50bc
00000310: 07b1 17be 1b39 bcbd 2473 49be 7fc4 8dbe
00000320: 3a49 36be 034c a63d 17bd fdbd eff6 ea3d
00000330: 9a9f 35be ed34 cb3d ea44 eebd 2409 133e
00000340: f37d e2bd a79c 1cbd 14ba 37bd 09e2 bebe
00000350: 86df 2f3e cb56 1cbc bb8a 54be f3ba 313e
00000360: 494d 8abe 47c2 bcbe 3dd7 c43c 3795 f9bf
00000370: 63c0 a1bd 9c55 c7bc 06f9 87be 840d a23d
00000380: e462 eebc 602a 55bd 859a 283e 586c 6fbe
00000390: de61 aabe 8145 153e cb27 d9bd 5c78 2b3e
000003a0: 36e4 b63d 66a9 a9be 9276 3b3e d577 babd
000003b0: c37b cf3d ccc9 dfbe 40c6 8f3d 2815 04be
000003c0: 85fd b63d 1054 553d 93dc a4bd 0724 a93c
000003d0: 9daa b43d 6a24 dbbe f4ce 3d3e f911 84be
000003e0: 6891 653c e936 6c3d 221e 1abf 0289 7abd
000003f0: 2807 c8bd e471 87bd 242b f73d 6fb3 17bf
0.037285253 0.023028705 -0.17624238 0.15949526 0.01004377 -0.02355739 0.11793952 0.27154794
-0.083226144 -0.4299037 -0.056479685 -0.112992175 0.014813203 -0.01669709 -0.34756547 -0.27763534
0.10898157 0.07542243 0.31247944 -0.3299755 0.046717722 0.18618447 -0.011151127 -0.049795497
-0.44334397 0.13086283 -0.057696924 -0.016882695 0.07834309 -0.39224136 -0.04784795 0.15447448
0.105582505 -0.392844 -0.6646556 -0.06896579 0.001281681 0.325012 -0.4097287 0.065705106
-0.11146327 -1.0900466 -0.0016285419 -0.24336599 0.021841597 0.00047147484 0.02054362 0.12704204
-0.116165 0.018630877 0.26233616 0.05520463 0.111952595 -0.051403183 0.07796717 0.0008496937
-0.1823647 -0.081490904 0.03702934 -0.17547362 0.073526464 -0.039564583 -0.11165927 -0.06673377
0.1959572 0.08803088 0.008739613 -0.033810966 0.20325968 0.10936463 0.05200368 -0.048940763
0.024015376 -0.0050447513 0.017876025 0.027463004 0.23352863 0.0752203 0.0041599 -0.33525702
0.059480887 0.19182341 0.07300301 -0.05678991 0.41088283 -0.26009962 -0.54750776 -0.26449612
-1.4921086 0.046746325 -0.10105685 0.121938646 0.14138374 0.14771539 -0.045790665 -0.021092514
0.033493564 -0.08198147 -0.2548414 0.018491846 0.09168705 0.092755124 0.10806565 0.16124806
-0.25790325 -0.04873516 0.009283043 0.031733356 -0.12335898 -0.00043461577 -0.0001332795 0.43002608
-0.8191429 -0.6802865 -0.5586182 -2.547007 -0.08324254 0.04127665 0.08098428 0.24726756
0.15605436 -0.11465398 -0.0019732045 0.0021361993 0.015762938 0.03913083 -0.021149624 0.08012405
-0.012592544 -0.05781072 -0.025812607 -0.060015347 0.042990856 0.019311512 0.106340975 0.10988973
-0.09861846 0.08648949 0.043200284 0.23878756 0.24150513 -0.0073583513 0.09303206 0.12546107
-0.0014767848 0.09769419 0.013592342 0.001159166 -0.06405038 -0.04355668 0.036723115 -0.5716635
-0.13999334 -0.17902549 -0.23648956 0.264893 -0.12579924 -1.10528 0.018208595 0.090537906
0.068842016 -0.52102584 0.13966702 0.04188566 -0.07128478 0.07915873 -0.52846235 -0.4786321
0.05720933 0.117731676 -0.19147962 -0.13800187 -0.10892057 -0.015229927 -0.50867164 0.3670627
-0.17863415 -0.9846159 0.13634714 -0.15153451 0.059870042 -0.44785208 -0.08017758 0.0058037285
0.014522683 0.004114325 -0.21071495 0.13850912 -0.233558 0.023370864 0.17254563 -0.29494658
0.077213936 -0.41497573 -1.1157564 -0.012737059 -0.14813624 -0.091905795 -0.19672829 -0.27688977
-0.17801371 0.08119967 -0.12389582 0.1147288 -0.17736664 0.09922204 -0.11634238 0.14358956
-0.11059179 -0.038235333 -0.044855192 -0.37281826 0.17175111 -0.009542177 -0.20756046 0.17356472
-0.2701209 -0.36866972 0.024028415 -1.9498662 -0.07898023 -0.024332814 -0.26557177 0.07912734
-0.02909989 -0.052042365 0.16465195 -0.23381174 -0.33277792 0.14577295 -0.10603293 0.16745132
0.089302465 -0.33137053 0.1830695 -0.091048874 0.101310275 -0.43708646 0.07020235 -0.12898695
0.08935074 0.05208212 -0.08049884 0.020647062 0.088216044 -0.4280122 0.18535978 -0.25794962
0.014011718 0.057669554 -0.6020223 -0.061165817 -0.0976699 -0.0661352 0.12068775 -0.5925817

fc1.bias f4 [128]
00000000: a34c 9b3d fc94 f33d 2eb9 25bd e1ac 31bd
00000010: 3cc3 c63d 99fe efbd 3ce3 56bd 7b7e 563d
00000020: 8eb1 73be e2dd 423e d870 fdbd b674 113d
00000030: 83bb 2abe a120 d6bd 2360 23bd a23b d9bd
00000040: 59f2 f03c 28a0 31bd 64f0 a3bd d89b 283d
00000050: 583f 08be f70a 3dbd 95e8 f23d 82d2 bdbd
00000060: bd60 d1bd c8e1 ed3d e947 763d ffe1 21bd
00000070: 1eda 32be 423d 52be 3f24 183d 8a95 003d
00000080: e53d bdbd cf63 1ebd eef6 df3c dcde 2fbe
00000090: 5480 c7bc 1ed8 a93b 0c9f 51bc 47a7 3f3c
000000a0: d8b9 483d d3e6 c43d 4650 943d c5bf 56bc
000000b0: c1b6 b6bc 45c9 17be 93fd bc3c bc8d 2abe
000000c0: 60a1 a5bd 917a d9bb cd87 81bd f883 bd3c
000000d0: dd74 42bd 01db 5c3d 4536 043e 6528 b7bc
000000e0: 1fec 423c 78f7 1bbc 1619 aabd 40b8 15be
000000f0: 87ac d4bd 69cf 333d 7e59 f13c 8a29 dabd
00000100: fcfa b13d e85c 4dbd 85d0 b23d 60ab 4bbd
00000110: 7501 43be 0f49 f5bd d540 edbd ada4 97bd
00000120: c1a8 f73c 553e 49bd 6e82 13be 19d4 c3bd
00000130: c723 ff3d c6ca ffbd ea4f 273d 0f71 fd3c
00000140: 852a bcbc b1df 583c a90f a63d 9628 1fbe
00000150: f976 a7bd b265 c93d ab3b 5d3d 2495 5cbe
00000160: 9b57 9b3d e7fe de3b 4ea9 fa3d 8c5e a0bd
00000170: fc1d 12be 0716 6bbe 69af 04be e480 a13d
00000180: f642 cebc b8ec 75be 612c b7bd 441a c03d
00000190: dd96 14be 1458 8abe edd7 7d3e 5701 2f3e
000001a0: fe02 7ebe f477 5fbe b043 adbd 61c7 b33d
000001b0: 8d08 5ebe f51f 90bd b20c 023e e819 65bd
000001c0: 1dc1 80be 76ae 3ebd 0cd4 aebd e541 013e
000001d0: 5a24 793c 8969 3f3e 42f5 3a3e 48a7 213d
000001e0: 3b4d 56bd 6919 863b 1f39 9c3b d7db 5abe
000001f0: d707 34be 4796 143e 5432 e63d 7f9a 8e3d
0.07582977 0.11893651 -0.040459804 -0.04337776 0.09705207 -0.117184825 -0.0524628 0.052366715
-0.237982 0.19029954 -0.12375039 0.035511695 -0.16673093 -0.10455442 -0.039886605 -0.10607077
0.029412435 -0.043365628 -0.08004835 0.04116425 -0.13305414 -0.046153035 0.11860768 -0.09268667
-0.102235295 0.1161533 0.060127173 -0.039522167 -0.17466018 -0.2053118 0.037143942 0.03139261
-0.09240321 -0.038669404 0.027339425 -0.17174858 -0.024353184 0.005183234 -0.012794267 0.011697597
0.04900536 0.09614339 0.072418734 -0.013107245 -0.02230394 -0.14822872 0.023070132 -0.1665563
-0.080874205 -0.0066369255 -0.0632473 0.023134217 -0.04747473 0.053919796 0.12911327 -0.022358129
0.011897116 -0.00951945 -0.08305566 -0.14621067 -0.103844695 0.043898974 0.029461619 -0.10652454
0.086904496 -0.05013743 0.08731178 -0.049723983 -0.19043525 -0.119768254 -0.11584631 -0.07404456
0.030231835 -0.04913171 -0.14405224 -0.09561939 0.12457996 -0.12489848 0.040847696 0.0309377
-0.022969494 0.013236926 0.08108456 -0.15542826 -0.08176989 0.0983385 0.054011982 -0.21541268
0.07585069 0.006805289 0.122393236 -0.078305334 -0.1426925 -0.22957622 -0.12957539 0.07885912
-0.025178414 -0.24016082 -0.089440115 0.0938001 -0.14510675 -0.27020323 0.247894 0.17090355
-0.24805829 -0.21823102 -0.08460176 0.08778263 -0.2168295 -0.07037345 0.12700155 -0.05593291
-0.25147334 -0.046553098 -0.085365385 0.12622793 0.015206421 0.18692602 0.18257621 0.039466172
-0.052319746 0.0040923846 0.0047675516 -0.21372925 -0.17581116 0.14510451 0.11240068 0.069630615

fc2.weight f4 [64, 128]
00000000: 4bb6 11be fc03 49bd 78ac acbc 4421 963e
00000010: 4f7d 0a3e 9846 d23d 85af 0abd 7457 ef3d
00000020: 718d 7d3d de8b efbd 832a 973d aeea 433e
00000030: 9abc 3fbe acdf cd3d 0893 edbe 766f 3abd
00000040: f741 2b3d 5267 04be 887e 3abe 0fc3 8cbd
00000050: 25c2 143d 8c86 213e d502 85bd e441 f43d
00000060: 4add 19be 8e89 393d d78d ddbd 0ad3 86bd
00000070: 1566 6bbc b5d0 593e 329a 32be d350 c53d
00000080: 0935 b1bd 5700 75be b839 ba3d 2f61 b83d
00000090: ed1f bbbe 8f33 92bc 4aeb 943e 4e89 453c
000000a0: 8d3d 2b3e 04fd 89bc 2bd3 763e db29 60be
000000b0: 01cd f4be 2ba2 c8bd 33e7 8f3d 6187 44be
000000c0: a2bf dd3c cfe7 c6bd f602 2abe 2f58 9dbd
000000d0: a519 5dbd 8f70 e13e 04b9 6dbc a566 e43c
000000e0: 8f9d 7f3e ca34 cebe 245e 14bc 18dd 523b
000000f0: d69b 513e 6a4a 3b3e ef0b eebd 59fd 993e
00000100: b513 f93b 90fd 12be bb48 0d3e 9a17 143e
00000110: e36d 893e 1c8d 7abd 3fce 383d 2929 e93d
00000120: bfaf 0e3e f4e9 113d 7326 05bf d846 453e
00000130: b684 f9bd ee26 b1bd 7092 d5bd cb3c dbbb
00000140: 6062 93bd 8b36 9bbd 672e e73d 7b23 fd3d
00000150: 3dec 133c 806b 483d d117 6c3e 2a26 dabd
00000160: 4e7a ca3e 31ae 9d3d 891b a8bd ad25 0ebe
00000170: a018 dfbd fcd3 863d bf24 153e 6be7 b03c
00000180: 37eb f6be 7d94 ce3b dfe9 e5be 9845 0e3d
00000190: d09e 1ebc cd42 27bd c1e4 81bc 6b19 ebbc
000001a0: 3357 b73d 5eef 82be aa6d a6bc 6a09 383d
000001b0: 41c0 9c3e 7d36 0ebe 7f61 5cbe 8af0 b03e
000001c0: 1d0a 22be 3b9e 9abb 2017 9bbd 5fbc 0cbe
000001d0: 97aa 1f3d 33ff 4f3c d5cb 5a3d e55f 743e
000001e0: 203e b03d cc2c 5f3d 7f5e 6f3e 2b0e f63d
000001f0: b6e9 80bd 74b4 0cbe 4c4c e03d 5c3c 443c
00000200: bac1 933d 7af1 353e ea6d abbd ea17 abbd
00000210: ff57 e23c f385 323e f0ce 913a be24 87be
00000220: 6914 66be 3547 273d 28be f8bd 7352 96bd
00000230: 1a8d a93d bfbb 2b3d ad87 eabc 7d52 12be
00000240: 9a48 d2bd 9166 bc3e 09cf 1b3d 9b27 293d
00000250: 0ba0 6dbe 1b8b 80bd 7df9 943d a209 3f3d
00000260: a5f8 003e 58d6 8b3d 37f3 a23e bf69 f4be
00000270: a1fe 6abe 5714 af3e 290e ad3c d2e3 7f3d
00000280: d94a 3c3e e8ca 3ebe 8d5e b63d 1d5a b3bc
00000290: 91cc f43c be3c 2f3e 19ad cebd a808 dd3c
000002a0: 8f04 b5be 6f8c 40bd 297b 59bc 84a1 173b
000002b0: 28f1 5e3e a742 b63c 933e 513d 38d3 fdbc
000002c0: dcad 8cbe 79aa 2bbe 6006 b5bd dc34 053e
000002d0: 6455 7cbd eabf 76be 7d34 123d d2d2 563e
000002e0: b6ab 793d d5dc f53d b98c b7bd 4ffb 1b3e
000002f0: cff8 b9bc 772e 15bf 28a0 81bd 38de b7be
00000300: 49e0 943d 60c6 9b3d 5008 15bf 5fe8 9a3d
00000310: 56e1 6b3e 530b a0bd a2ea 10bd c1fb 553e
00000320: 9cf3 2ebd e762 0abe 966f b9bd 96cb 153c
00000330: eaf4 6d3e 7c8a c93d 19f9 0fbd e598 4b3d
00000340: 94c9 e43b e0f6 843d bacc 08be 9129 5f3d
00000350: dc64 f0bc 0bb8 7a3e fa12 c43c cd9c 133d
00000360: 37ce 753e 550c cd3d 36a8 9cbb 269a 3fbe
00000370: e5ab 0d3e d514 353d 3ba4 2ebe 94fe ea3c
00000380: 3c6c 50bd 869a bb3d 2d85 1a3e 03c7 ec3b
00000390: b033 213d b195 023e 4ed6 463d 5326 bb3d
000003a0: 6f34 66bd c51a 993d 8ba1 f03d 2378 e33d
000003b0: 3091 3e3e 7230 483c 02f6 233e 6333 e5be
000003c0: fe26 70be 43b9 a4be 2543 983d 519b 973c
000003d0: 2b5f b9bd c140 ecbd 9228 ce3c 22cf e13d
000003e0: 0884 d3bd b5fb a2be 994b 553d 3428 d93c
000003f0: 38ca e03d 384b 5bbc 7117 c83d 8790 433e
-0.14229695 -0.049076065 -0.021078333 0.29322255 0.13524364 0.10267371 -0.033858795 0.11686602
0.061902467 -0.116965994 0.07381155 0.19132492 -0.1872429 0.10052428 -0.46401238 -0.045516454
0.041810956 -0.12930039 -0.1821233 -0.06873142 0.036317963 0.15773982 -0.06494681 0.1192663
-0.15025821 0.045297198 -0.108180694 -0.06583221 -0.0143676 0.21271022 -0.17441633 0.096345566
-0.08652694 -0.23925911 0.0909304 0.09002911 -0.36547795 -0.01784685 0.2908576 0.012056662
0.16722699 -0.01684428 0.24103992 -0.21890967 -0.47812656 -0.09796556 0.070265196 -0.19192268
0.027068917 -0.09712183 -0.16602692 -0.07682835 -0.053979535 0.44031188 -0.014509443 0.027880976
0.24962448 -0.4027465 -0.009055648 0.003217524 0.20469603 0.18290105 -0.1162337 0.300761
0.007601226 -0.14354539 0.13797276 0.14462128 0.2684165 -0.06116973 0.045118567 0.11384804
0.1393423 0.035623506 -0.52011794 0.19265306 -0.12183516 -0.086500034 -0.10428321 -0.0066905967
-0.07196498 -0.075787626 0.112881474 0.12360283 0.009028492 0.048930645 0.2305596 -0.106518105
0.39546436 0.0769924 -0.08208377 -0.1388156 -0.10893369 0.065834016 0.14564799 0.021594724
-0.4822633 0.0063043223 -0.44904992 0.03473434 -0.009681419 -0.04083519 -0.015856149 -0.028698644
0.08952179 -0.25573248 -0.020315964 0.044930853 0.30615428 -0.13887973 -0.21521567 0.34558517
-0.1582417 -0.0047185696 -0.0757277 -0.13743733 0.038981047 0.012695122 0.053417046 0.23864706
0.086055994 0.05448608 0.23375891 0.12014421 -0.06294577 -0.13740712 0.109520525 0.011977281
0.07214685 0.17767897 -0.08370574 -0.083541706 0.02762985 0.1743391 0.0011124294 -0.2639522
-0.22468723 0.040839393 -0.121456444 -0.07339945 0.08278866 0.041927096 -0.028629148 -0.1428928
-0.10267754 0.36797002 0.03803924 0.041297536 -0.23205583 -0.06276532 0.072741486 0.046640046
0.1259485 0.06827992 0.31826183 -0.47736928 -0.22948696 0.34195206 0.021124916 0.062473126
0.18387927 -0.1863209 0.08904753 -0.021893555 0.029882701 0.17113015 -0.100916095 0.026981667
-0.3535504 -0.047008928 -0.013273993 0.0023137042 0.21771681 0.02224858 0.051085066 -0.030984506
-0.27476394 -0.16764249 -0.088391066 0.13008446 -0.061604872 -0.24096647 0.035694588 0.20978859
0.060954772 0.12005011 -0.089623876 0.15232585 -0.022701649 -0.58274025 -0.063293755 -0.35911727
0.072693415 0.076061964 -0.5821581 0.075638525 0.23035178 -0.0781466 -0.035380013 0.20896818
-0.042712793 -0.13514291 -0.090544865 0.009142777 0.23237959 0.09840867 -0.035149667 0.04970636
0.006982038 0.064924 -0.13359347 0.054483 -0.029344968 0.2448427 0.02393483 0.03603821
0.24004446 0.10012118 -0.0047807945 -0.18711147 0.13835104 0.04420932 -0.17054836 0.028685845
-0.05088447 0.091603324 0.15089865 0.0072258725 0.039355934 0.12752415 0.04854422 0.09138169
-0.05620235 0.07475809 0.11749562 0.11106899 0.18610072 0.0122185815 0.16011813 -0.44765767
-0.23452374 -0.32172593 0.07434682 0.018506678 -0.09051355 -0.11535788 0.02516583 0.110258356
-0.10327917 -0.31832662 0.05207405 0.026508428 0.1097607 -0.013384633 0.09770096 0.19098102

fc2.bias f4 [64]
00000000: ff4e 46be 2716 03be 8f9e 813e 44a0 613d
00000010: 0748 763e 2d0f 65bd bfb7 84bd 24bb af3d
00000020: 8ad1 61be 6ac7 26be 3b7f a4bc cbdc 4a3e
00000030: 55c4 20be e51b ae3d 403f 363a 26b2 7fbc
00000040: a169 25be 8b85 bebd 3729 98bd bcd7 5e3c
00000050: 99e9 07bd f9c5 553d 4539 e7bd e9d3 193d
00000060: 8cdd 89bd 3f27 0abe 67a6 1b3f e3fe 633d
00000070: 58f1 a8bc 8d6a cdbd 3876 2dbd 1d06 f63e
00000080: eec7 66be 4370 2a3c 07d6 c13d 8247 f3bd
00000090: 4c51 3dbd 3120 293d 88a7 723d 7151 6d3e
000000a0: 0582 c339 6a54 5e3b 9237 95bd 3b7a c83d
000000b0: 3f31 013f 556a f1bc 322d 633e 7680 25be
000000c0: cde0 683e 1d2c 203d 690b c33d 03d8 aebd
000000d0: 5689 6abe c040 de3e f041 c63d 5949 f03e
000000e0: df0f e43d eade f13e ca5b 603e f57b 74bc
000000f0: 9f20 d2bd 7788 35bd 4388 03be 3a99 63bd
-0.19366072 -0.12801419 0.25316283 0.05508448 0.24050914 -0.055922676 -0.06480359 0.08580616
-0.22052589 -0.16287008 -0.0200802 0.19810788 -0.15699895 0.08501414 0.0006952174 -0.015606439
-0.16153575 -0.09302815 -0.07429736 0.01360124 -0.03318176 0.052190755 -0.1129022 0.03755561
-0.0673171 -0.13491534 0.60800785 0.055663 -0.020622894 -0.100300886 -0.04234907 0.4805154
-0.22537205 0.010402742 0.094646506 -0.118788734 -0.04622011 0.041290466 0.0592418 0.23175599
0.0003729017 0.0033924826 -0.0728599 0.097889386 0.5046577 -0.029469648 0.2218521 -0.16162285
0.22742005 0.03910457 0.09523661 -0.08537295 -0.22903952 0.43408775 0.09680545 0.4693096
0.1113584 0.47240382 0.21910015 -0.014922132 -0.10260128 -0.044319596 -0.12844948 -0.05556605

fc3.weight f4 [4, 64]
00000000: f182 5cbd ba6f edbd 28cb e83d 4b9f 133d
00000010: a744 193d 7fe9 1e3f 2e09 343e 28c1 eb3e
00000020: 4a48 87be 3d76 e2bd eb09 cc3e 68a9 233e
00000030: 8840 46be 975f 7d3e 56d8 4abd 1d22 f7bd
00000040: 4709 f8bd eb2c 9cbe 9d23 f1be 612f bc3e
00000050: 2087 0f3e 2f00 89bd b3b8 b93e 2fa6 8aba
00000060: 2f8e be3d fd97 90be cb77 663e bb28 813e
00000070: ce81 853d 57ac 08bf 2fd7 01be 52e3 4f3e
00000080: 7116 85bd c93a 7d3d fb56 083d e8fc 20bd
00000090: fbcc a2bd 2729 843e d0ca a7bb 914f f03d
000000a0: 015c d93e 3cf6 64be 9b2b 2dbd 69d3 d63d
000000b0: 9c39 c93d b757 d7bd cfde f83d b005 cabe
000000c0: 73f8 023e 2274 573e 1385 02bd 4e25 453e
000000d0: a6a5 aebe d17d 1f3e c9d5 ff3d 2465 123e
000000e0: 1720 c2bd a9b4 1a3e 7c97 743d 51f2 9e3c
000000f0: 7955 dcbe 7a80 ee3c 87a4 803d 6b1d 8a3e
00000100: d092 2cbd d556 18bd 8454 443e f0d6 ec3d
00000110: 2298 3c3e e420 063f dee6 d5be da13 ce3e
00000120: 4f96 63be aae4 f4bd 9bba 35bf ef74 cd3d
00000130: f177 5abe 99d9 7e3e aeee 4c3d 99ae e3be
00000140: 4852 a9bd 5b8f aa3d 2081 1d3d 67d5 b83e
00000150: acbc 413e fad4 bebe af7e c4be 66e1 84bd
00000160: e6e0 20bf ce35 62be a67d 723e cd91 743e
00000170: e975 7f3e e952 4fbe 8ff0 86be c932 a13d
00000180: dcde d8bd 4fa4 26bd cd7f 36bf 8b01 ffbd
00000190: 7a50 97bd 544a 0f3f d7f1 ecbe 647f 4e3d
000001a0: 11e7 b13e f2e2 19be 3a20 82bd 06c2 113e
000001b0: 7328 3b3e 5eef 453e 31de f13d 7a53 fd3d
000001c0: a1b0 163e 9101 853e 52a8 363c 8aa9 82be
000001d0: cf84 8dbe 975a fa3d 8303 e13d de16 ce3d
000001e0: b53b 523d 80c0 0f3e 4207 fa3d 94dd 68bd
000001f0: 1293 4a3e 3256 6b3d 0785 ac3d ecb1 113f
00000200: 9205 35be 9bca 2dbe f743 643e 607c 733e
00000210: 594d d93d f1e7 303f 31fc debe a914 fc3e
00000220: b718 5bbe 094c 71be 0535 783e 27fc 743d
00000230: 09e3 59be a0b8 ee3d 5838 c83d 45f7 853d
00000240: f538 86be c095 043f 6fa3 02bf c0d7 863e
00000250: f6dc 773e 1a53 7a3e c718 a2be ceb2 603e
00000260: 0902 babc 180b 063c 0e75 513e 2564 ac3e
00000270: 909e febc 8d84 8cbe bd3a 133e e0bc 473d
00000280: c4ee 3dbe 0ebe f9bd c6fe f0be 602c 10bf
00000290: 0e08 2b3c 5c4b 113f 2b5f 983d f7a5 0c3e
000002a0: 245d 943e 210c 64be e1e8 6cbe 32dc 803c
000002b0: 32be dc3d 24d6 ccbe 432e abbd 4fa7 80be
000002c0: e1c8 183d 6bfa 583e 69a6 413e ca58 dd3e
000002d0: 3154 7abe 5c7b 4c3e a087 353e b070 383e
000002e0: dd4b 1d3e 2a27 0c3e 03b4 a43d 33ce b33b
000002f0: ee8e 88be 110a 4abf f9b5 dfbd d8cb a5be
00000300: d708 57be cae4 783c 5df6 3c3e b058 293d
00000310: 21f2 e73d 9204 733e 70fe acbe bdaa a43e
00000320: db96 b5be cc89 b8bd 1d4b 5ebd b1de a23d
00000330: 422c 69be a89a 223e 7a19 123e c14e 533e
00000340: c514 63bd 3214 553e b14d 9bbe e5fc cb3e
00000350: 5e5e 9f3e 67c1 b73e ebcb c4be 8605 863e
00000360: 972f 3b3e 23a1 83bb 84f5 443e 76bd af3e
00000370: 5203 bc3e 2b35 9abe 3d5a e5be a777 503e
00000380: b7d3 2fbe 4bb2 19bf b6c1 233f 5358 b9bd
00000390: 35f9 abbd 75bb 3cbe 5fc4 d5be 810a c63d
000003a0: 5f9a 80be 5a70 42be 7409 c8bd 1e8b 18be
000003b0: db94 153e bd24 88be 385c 263d e091 c6be
000003c0: a95a 24bd 8389 973e ffaa 0a3e 2e2e 3cbd
000003d0: 17e0 43be 8a82 ca3d 852a 833e 9bc4 1b3e
000003e0: bb82 0f3e d2c4 b43d b707 e43d 0862 5cbe
000003f0: cbe6 893e 60a0 debb 3023 bbbe 5204 0d3f
-0.053835813 -0.11593576 0.11366874 0.036040585 0.037418988 0.62075037 0.17581627 0.46045804
-0.2642234 -0.110577084 0.39851317 0.15982592 -0.19360554 0.24743496 -0.04952272 -0.120670535
-0.121111445 -0.3050302 -0.47097483 0.36754897 0.1401639 -0.06689488 0.36273727 -0.0010578091
0.09304463 -0.28240958 0.22506635 0.25226387 0.06518899 -0.5338797 -0.12679742 0.2030156
-0.06498421 0.06182364 0.033286076 -0.03930369 -0.07949253 0.25812647 -0.0051206127 0.11733926
0.42453006 -0.22359556 -0.042277914 0.10489542 0.09825441 -0.10514777 0.12151872 -0.39457464
0.12790088 0.21040395 -0.03186519 0.19252512 -0.34110755 0.15575339 0.12491948 0.14296395
-0.09478777 0.15107979 0.05971478 0.019402655 -0.4303396 0.029113997 0.06281381 0.2697557
-0.0421322 -0.037192184 0.19172865 0.115644336 0.18417409 0.5239394 -0.417777 0.4024952
-0.22225307 -0.11957677 -0.7098786 0.10032069 -0.21334817 0.24887694 0.05003231 -0.44469145
-0.08267647 0.08328124 0.03845322 0.36100313 0.18919629 -0.37271863 -0.38377902 -0.06488304
-0.6284317 -0.22090837 0.23680744 0.23883744 0.24947323 -0.20246471 -0.26355407 0.078710146
-0.10589382 -0.04068404 -0.7128876 -0.12451466 -0.073883966 0.5597279 -0.4627826 0.050414458
0.34746602 -0.15027979 -0.06353803 0.1423417 0.18277149 0.19329593 0.11809958 0.123694375
0.14715816 0.25977758 0.011148529 -0.25519973 -0.27640387 0.1222431 0.10986998 0.10062955
0.051326472 0.14038277 0.122084156 -0.05685194 0.19782665 0.05745525 0.084238105 0.5691211
-0.17677906 -0.16971819 0.22291552 0.23777914 0.10610456 0.69103914 -0.43551782 0.49234512
-0.21396147 -0.23564161 0.24238975 0.059810784 -0.21278013 0.11656308 0.09776372 0.065413035
-0.2621533 0.51791 -0.5103063 0.2633648 0.24205384 0.24445763 -0.3165953 0.21943209
-0.022706049 0.008181356 0.20454809 0.33670154 -0.031081468 -0.27444878 0.14377876 0.04876411
-0.18548113 -0.12194453 -0.47069377 -0.5631771 0.010438932 0.56755614 0.07440027 0.13735186
0.2897731 -0.22270252 -0.23135711 0.015729997 0.107784644 -0.40007126 -0.08358433 -0.25127646
0.037300948 0.21189277 0.18911137 0.43231803 -0.24446179 0.19968933 0.17727518 0.18011737
0.15360971 0.13686815 0.08042147 0.0054872273 -0.26671547 -0.7892161 -0.109233804 -0.32382083
-0.20999466 0.015191266 0.18453355 0.041344345 0.11325479 0.23732212 -0.3378787 0.32161513
-0.35466656 -0.09010658 -0.054270852 0.07952631 -0.2277079 0.15879309 0.14267531 0.20635511
-0.05543973 0.20808485 -0.3033271 0.3984138 0.31126684 0.35889742 -0.38436827 0.2617609
0.18279873 -0.0040170117 0.19234282 0.34324235 0.36721283 -0.3011869 -0.4479541 0.20358144
-0.17170607 -0.6003768 0.63967454 -0.0905005 -0.08397142 -0.18430884 -0.41751382 0.09669972
-0.25117776 -0.18988171 -0.09767428 -0.14896819 0.14607565 -0.2659053 0.04061529 -0.3878317
-0.040125523 0.295971 0.13541792 -0.045942478 -0.19128452 0.098881796 0.25618377 0.15211718
0.14014713 0.08826603 0.11134284 -0.21521771 0.26933894 -0.0067940205 -0.36550283 0.5508472

fc3.bias f4 [4]
00000000: c6df a83e 4463 9d3e 9af4 ad3e 95a7 a03e
0.32983226 0.30739796 0.3397568 0.31377855
