checkpoint1.pth (torch_old, 28481 bytes, 6 tensors)

fc1.weight f4 [64, 37]
000000 56 d5 a8 bd 18 8a b5 3d 4f 66 b3 bd bb e7 5b be
       -0.082438156 0.0886423 -0.08759748 -0.21475117
000010 86 58 33 be 8e 1d 99 bc 84 72 3d 3d 59 f6 c2 3d
       -0.17514238 -0.01869085 0.04625179 0.09519643
000020 e5 ab c0 bd 78 32 34 3d fe 55 90 bd 04 ad ec bd
       -0.09407786 0.043993443 -0.07047652 -0.115564376
000030 8b 4b 99 bd 36 8e 01 be ef 35 30 3e da 69 5a be
       -0.07485112 -0.12651905 0.17208074 -0.21329442
000040 ef 98 1a 3d ed 82 50 3e 1b 3c 12 3e 0f f3 d8 3d
       0.037743505 0.20362444 0.14280741 0.10593235
000050 5e 43 31 bd e7 12 6a 3e 4a 79 ee 3d dc ec 97 bd
       -0.043277137 0.22858773 0.11644228 -0.07418224
000060 c8 c5 0c 3e c9 91 9f bc ff 1a 38 3e e7 63 85 bd
       0.13747323 -0.019478695 0.17979048 -0.065131955
000070 4e 67 f3 be b3 bd 51 be cf e2 ab 3d d0 73 13 3a
       -0.47539753 -0.20482521 0.0839287 0.00056248624
000080 d0 ed 9b bd 3e 8e 49 be 27 1e 66 be 2e 24 10 3d
       -0.076137185 -0.19683167 -0.2247244 0.035190754
000090 cb 04 e0 bc 03 5c 4b 3e 45 79 ad 3d dc d3 9e bd
       -0.027346035 0.19859318 0.08470396 -0.07755253
0000a0 33 a1 c5 bc ab e6 de bd 15 1b ee bc 6d 6d 25 be
       -0.024124717 -0.1088384 -0.029065648 -0.16155024
0000b0 e7 d3 2a be ad a1 23 3e 03 dc 88 be d3 7d 99 3c
       -0.16682397 0.15979643 -0.26730356 0.018736755
0000c0 01 78 09 be 95 b4 b2 3d 6d ea 35 3e 63 e9 44 3e
       -0.13424684 0.087258495 0.17765208 0.19229655
0000d0 35 04 b4 3d b1 0d 48 bd b0 6c 18 3d 30 f9 00 bd
       0.08789865 -0.048841182 0.037213027 -0.031487644
0000e0 45 c9 13 3e 3e 31 01 be 3e d0 62 3d 95 43 71 be
       0.14432247 -0.1261644 0.055374376 -0.23560937
0000f0 cc 96 0d 3c 15 af 24 3e fc 0f 93 bd 95 27 0d 3d
       0.00864191 0.16082413 -0.07180783 0.034461576
000100 39 7a 05 3d 7e f1 06 be 1d 9b ab bc 38 eb 39 3d
       0.032587264 -0.1317806 -0.020947987 0.045390338
000110 70 9c 42 3e 0d 2d 46 3d 41 c1 15 3c da b6 4e bd
       0.19004989 0.048382808 0.009140314 -0.05046735
000120 e1 ba 3d 3d 08 1a 53 3d cc 63 09 3e 2c 26 12 3d
       0.0463208 0.051538497 0.13416976 0.035680935
000130 7e 0c e6 3d f4 01 77 3e 05 a6 9b bc 30 6f dd be
       0.112328514 0.24121839 -0.019000063 -0.43248892
000140 86 bc 07 3e db 11 b9 3e be f9 ea bb b7 72 87 be
       0.1325551 0.36146435 -0.007170885 -0.26454708
000150 02 e2 5f 3d 17 44 19 3d 62 97 81 bc 39 b7 5a 3c
       0.054658897 0.03741845 -0.015819255 0.013349348
000160 fe aa 68 bd 16 5b db bd fa 7e 2c 3e 9e b1 22 3e
       -0.056803696 -0.10710733 0.16845313 0.15888068
000170 31 37 d1 3d b8 de 46 bd aa 5d ed bd 24 a9 41 bb
       0.10215605 -0.048552245 -0.115901306 -0.0029550279
000180 da 80 83 3c 0c 2b a3 3d 4a 19 b0 3d 11 5d c1 be
       0.016052652 0.07967195 0.085985735 -0.37766317
000190 5b 8b b0 3e 75 7d 42 3e bb 39 d7 3d e5 ce a3 be
       0.3448132 0.1899317 0.10509058 -0.31993786
0001a0 b3 a2 76 be c8 8e 83 3d 90 f7 cf bb 09 f4 de 3b
       -0.24085502 0.06423718 -0.0063466504 0.0068039936
0001b0 3f 52 61 bc c9 18 40 bc cd d1 7d 3c f3 d0 eb 3d
       -0.013752519 -0.011724659 0.015491915 0.11514463
0001c0 a8 e8 71 bd 6c 02 a0 3d 2a d3 f0 3d c4 c3 9a bd
       -0.05905977 0.07812962 0.11759026 -0.075568706
0001d0 73 37 01 be a8 f6 27 bc 4d 83 34 3e 8b 6a 84 bd
       -0.12618808 -0.0102516785 0.17628212 -0.06465634
0001e0 5a 15 76 be ff 6f 02 be 23 53 2f 3e 96 76 01 bd
       -0.24031582 -0.12738036 0.17121558 -0.031607233
0001f0 4b 28 3e bd 6b 47 94 3d 4b 0b 7f bd 8d de df bd
       -0.046425145 0.072401844 -0.06226663 -0.1093112
000200 a8 48 75 bd 9e da 8a bd c6 d4 9b bd 8b 85 d7 3d
       -0.059883744 -0.06779979 -0.07608943 0.10523518
000210 e1 be ee bd 0e d5 2e bd da 0e 1f 3e c4 f0 f4 3d
       -0.11657501 -0.042683654 0.15533009 0.11959985
000220 4a a0 ab 3c c7 56 93 bd f3 a3 b3 3d 43 7e 90 3d
       0.020950455 -0.07194286 0.08771505 0.070553325
000230 a7 b5 1f 3e d1 44 31 3e 52 2e 05 3d fc 76 a3 3d
       0.15596639 0.17311408 0.032514878 0.07981679
000240 1a c8 87 be 57 24 80 bf 7b 41 0d 3e 05 fc 90 39
       -0.26519853 -1.001109 0.1379451 0.0002765359
000250 50 e7 e6 ba 8f a2 40 be 9f 73 09 be e5 72 55 be
       -0.0017616544 -0.18812011 -0.13423012 -0.2084461
000260 db eb 02 3e 9e 6e 0e be 5c ef 9b 3e 7b 89 92 3c
       0.12785284 -0.13909385 0.30456054 0.017887821
000270 a3 e7 68 bd ab 89 9e bd e0 53 96 3d f0 e4 03 be
       -0.05686153 -0.07741102 0.07340217 -0.12880301
000280 26 d8 52 bd e0 19 5e be 2e bb ef be 2f 67 4e bd
       -0.051475666 -0.21689558 -0.46822494 -0.050391372
000290 5f 57 27 bc df 85 b0 bd 9e 23 a5 bd 7f 4c 56 3e
       -0.010213702 -0.08619284 -0.08063434 0.20927618
0002a0 dd b7 c3 ba 68 0c 47 bd ce 76 29 3c 01 46 10 be
       -0.0014932115 -0.048595816 0.010343267 -0.14089204
0002b0 54 7e e7 bd 8b 4a eb 3d 4a 9f 19 3d 9d 83 a6 bd
       -0.11303392 0.11488827 0.037505426 -0.08130572
0002c0 75 25 76 bd 90 e5 f7 bd 95 55 18 3d e6 27 25 bc
       -0.060094316 -0.121043324 0.037190992 -0.010080313
0002d0 c9 d4 04 3e e5 76 1d 3e bc 05 35 3e d8 66 0a bd
       0.12971796 0.15377386 0.17677969 -0.033789486
0002e0 6d f5 08 3d 13 44 d9 3c 85 11 a2 bd a1 00 cd bc
       0.03343718 0.026521718 -0.07913498 -0.025024714
0002f0 99 d1 9a 3d 37 c4 98 3d 89 1d 88 3e 60 47 ae 3d
       0.07559509 0.074593 0.26585034 0.085097075
000300 80 db d0 bd 37 79 db be de 3d 9b bf 4a f2 16 bd
       -0.10198116 -0.42865917 -1.2128255 -0.03685216
000310 b8 52 87 bd 5f 98 86 bd 51 9d 9f bc 9d 2f 8f 3d
       -0.06607574 -0.06572031 -0.019484194 0.069915034
000320 5f 36 46 3d 8b 6c 6b 3d 68 c6 83 bd 38 a1 ac bd
       0.048391696 0.05747656 -0.06434327 -0.084291875
000330 be bb 3d be ed 96 1f 3e 77 e3 1d be b1 94 02 3e
       -0.18528649 0.15584917 -0.15418802 0.12752034
000340 c0 18 de 3d e5 00 14 3e 5f a4 39 bd dc b2 cf bd
       0.108445644 0.14453466 -0.045322772 -0.101415366
000350 02 8b c7 3d fe e7 d0 3d 21 b1 52 3e 5b 00 fb bc
       0.097433105 0.10200499 0.20575382 -0.030639818
000360 07 61 06 3e b7 50 ac bd d5 96 f1 3d 12 ef 01 3e
       0.1312295 -0.08413833 0.11796347 0.12688854
000370 20 3d 18 bb cb 07 35 3c f5 8b 35 bd 06 43 07 3d
       -0.0023229793 0.011049221 -0.044322927 0.033022903
000380 2f 58 68 be 6a 34 e2 3d 6b f9 53 be 9c dc e6 3c
       -0.2268989 0.110451534 -0.20700614 0.028181367
000390 58 ab df bd 7b 3d f0 38 26 df 0e be e4 60 dd 3d
       -0.10921353 0.000114555434 -0.13952312 0.10809496
0003a0 dc 84 d0 bc b1 4f a9 3d 90 76 05 3e 92 68 fb bd
       -0.025453977 0.08267153 0.13033509 -0.122758046
0003b0 e5 35 88 3e 54 f2 47 be 72 c9 1c bd 23 83 86 bc
       0.26603618 -0.19526035 -0.03827805 -0.016419953
0003c0 3d da 36 3e 7d fa a6 3d 83 9b 96 bd 8a 01 61 bc
       0.17856689 0.081532456 -0.0735388 -0.013733277
0003d0 78 5d 39 3e a7 7b 2e be 63 2c 06 3e df 8b 5f be
       0.18102062 -0.17039357 0.1310287 -0.218307
0003e0 b7 9e a6 bd 67 ca ae bd 1e 92 14 3e e0 69 9c 3d
       -0.08135741 -0.08534699 0.14508864 0.076373816
0003f0 d5 fd 06 be 0a 6c a4 3c 91 b8 01 3c 29 b2 b6 bc
       -0.13182767 0.020071048 0.007917539 -0.02230175

fc1.bias f4 [64]
000000 e6 86 e1 3d f4 79 4f bd 7b df d5 bd f4 c6 85 bd
       0.11012058 -0.050653413 -0.10443016 -0.06532088
000010 c7 10 4b 3e 61 9d 13 bc 56 1d f8 bd e6 3e 0c 3d
       0.19830619 -0.00900969 -0.121149704 0.034239672
000020 5c af c6 3c 72 3f 50 be 6e fd 07 3e 0f ff 29 3e
       0.02425354 -0.20336702 0.1328027 0.16601203
000030 4c f2 1c 3e 31 0b 28 3e 24 b7 91 bd b5 69 2a bd
       0.15326804 0.16410519 -0.071150094 -0.041604716
000040 44 2f c6 3d 67 93 74 bc 9f 10 8e 3d 93 88 3d be
       0.09676984 -0.014927722 0.06936764 -0.1850913
000050 05 60 16 be 47 41 ac 3d 57 80 0f 3d 3b 4e 53 bd
       -0.14685066 0.08410888 0.035034504 -0.05158828
000060 38 9e 14 be 71 89 12 3e a0 b6 98 bd 5c c5 26 be
       -0.1451348 0.14310242 -0.07456708 -0.16286224
000070 cb 6c 01 3e d1 3a 08 3e 7f b7 83 bd 3b 3c 96 bd
       0.12639157 0.13303687 -0.064314835 -0.07335707
000080 36 7b 12 3e 21 a4 07 3d 5d 84 18 be bb c7 f0 3d
       0.14304814 0.03311551 -0.14894243 0.117568456
000090 38 15 10 3b 9e 37 48 3d 7d 30 af 3c 95 10 6f bd
       0.0021985304 0.048881166 0.021385426 -0.058365423
0000a0 4d e4 82 bd 05 d0 f1 bd 47 f7 f6 bd 00 24 20 3e
       -0.06391201 -0.11807255 -0.12058883 0.15638733
0000b0 7e d0 ac 3d f9 55 8a bd 89 86 91 3d 91 cf 62 be
       0.08438204 -0.06754679 0.07105739 -0.22149493
0000c0 d7 ed 11 be df 7a 9a 3c 8f 63 32 be 83 cc a3 3d
       -0.14250885 0.018857418 -0.17420791 0.07997992
0000d0 43 74 ef bc 5e a2 2c bd cd 5b 88 be ed b5 09 3d
       -0.029230243 -0.042147033 -0.26632538 0.033620764
0000e0 dc 73 b1 3d 9a a9 ca bd 01 1c 9f bd 07 9e a0 bd
       0.086646765 -0.0989563 -0.07769013 -0.07842641
0000f0 3c 04 72 bb eb 4c fb 3c 88 01 1f 3d 8b 6d 61 3d
       -0.0036928793 0.030676326 0.03881982 0.05503611

fc2.weight f4 [64, 64]
000000 79 74 d3 bd 89 b3 07 be d0 a7 fa 3c b5 e6 61 3e
       -0.1032495 -0.13252081 0.030597597 0.22060664
000010 2e c8 f4 3d e9 45 59 be f6 62 ab bd 41 57 eb bd
       0.11952244 -0.21218075 -0.08368485 -0.11491252
000020 1f c5 85 ba 38 a1 35 3d 1b 8f 7d be ab a9 06 be
       -0.0010205841 0.044343203 -0.24761622 -0.1315066
000030 88 9d 29 be 64 09 00 bd 29 d9 ce bc 96 12 14 3d
       -0.16564 -0.031258956 -0.025250034 0.036150537
000040 2b 1c 9d bd 88 00 8b be 7e f6 0a 3e 06 08 be be
       -0.07671388 -0.27148843 0.13570592 -0.37115496
000050 ad 8e cb bd 5a d3 d2 bd 27 63 e4 3d 69 c8 a8 bd
       -0.099393226 -0.10294218 0.11151724 -0.0824135
000060 ff ae 44 be 5c 86 11 bf 2f 56 10 3e d7 02 8f 3d
       -0.1920738 -0.5684564 0.14095376 0.069829635
000070 6f 30 15 3e ca e6 ae 3d a4 41 3e 3e 34 57 55 3e
       0.14569257 0.08540113 0.18579727 0.20834047
000080 96 89 27 3b 4e ee 03 3f 66 18 71 3e 4f c7 d5 3c
       0.0025564185 0.515355 0.23544464 0.026096014
000090 2b da d4 bd ea 21 bd bd f6 8f bb 3d aa 6b 9d 3d
       -0.10393175 -0.09234984 0.09158318 0.07686551
0000a0 77 52 8b be 8b e9 2c be d1 b7 03 3e 3d db 6a bd
       -0.27211353 -0.16885965 0.12863089 -0.05733799
0000b0 c7 b1 2b 3e cb f4 c8 3c f1 70 34 3d e1 2f c9 bd
       0.16767035 0.024530789 0.04405302 -0.09823585
0000c0 b8 9a a5 be 8a 76 77 be fe 18 d6 be f3 e0 57 be
       -0.32344604 -0.24166313 -0.41815943 -0.21081905
0000d0 f8 bc f2 bd 87 5a 29 be 25 79 3b 3e 4e ec 0b 3e
       -0.11852449 -0.1653844 0.18307932 0.13664362
0000e0 49 a0 8f be 04 f2 34 be 6a 57 9c be 8a 97 d9 3d
       -0.28051975 -0.17670447 -0.30535442 0.10624607
0000f0 2a d3 37 3d 8f a4 50 3e 7f 0d 07 bf e2 a9 b7 bc
       0.044879116 0.20375274 -0.5275497 -0.022419874
000100 49 14 d0 3d b9 17 95 3d e3 6c 0b bf 92 9b 38 3d
       0.10160119 0.07279915 -0.5446302 0.04507024
000110 0f e8 07 3d 0f e5 30 3e 20 e1 da bd df c9 2a 3c
       0.033180293 0.17274879 -0.106874704 0.010424106
000120 66 8c f3 bd df ee 7f bd b4 6d e7 bd 9f a7 b6 3e
       -0.11892013 -0.062483665 -0.11300221 0.3567476
000130 00 d3 55 be 28 d1 c0 3d bf df aa bc 2c 28 e7 3d
       -0.20881271 0.094148934 -0.020858644 0.11286959
000140 cc 0b 05 3e 22 b6 0d bd 10 ed fe bd 5d af 94 3d
       0.12992781 -0.034597524 -0.1244756 0.072600104
000150 74 6f 48 3d db 2c 1c be 5f 4d 45 3e b7 b9 b9 3b
       0.048934415 -0.15251486 0.19267796 0.005667891
000160 d4 18 82 be 98 c5 5b 3c 78 6c 0d be 06 cd b0 bd
       -0.25409567 0.013413809 -0.13810909 -0.08632855
000170 9a 88 c5 3d 5c ac 3e 3e 94 ef 15 3e 00 8e c1 bc
       0.09645195 0.18620437 0.14642173 -0.023627281
000180 58 b3 47 be 5b b5 5e be 9d 3e 29 bc 60 d3 5e 3d
       -0.19502008 -0.21748869 -0.01032987 0.0544008
000190 32 74 1a 3c 95 b7 73 3e 2f f6 cf bd ef 60 c4 bd
       0.009427117 0.238005 -0.10154378 -0.09588801
0001a0 0d cb 7a be 7e aa b9 3d 16 ed 02 3d 98 52 fd bd
       -0.2449152 0.09065722 0.031964384 -0.12369269
0001b0 4d 9f 5b bd 96 96 07 bd 74 dd 66 be 52 75 f2 3c
       -0.053618718 -0.033102594 -0.22545415 0.029596958
0001c0 66 db 97 bd 21 13 a5 3c d0 2f 33 be 96 77 d0 3d
       -0.07414894 0.020150723 -0.17498708 0.10179059
0001d0 77 8b 98 bd 0a 2c e4 3e 23 72 ec bc 2e 16 c3 bc
       -0.07448476 0.4456485 -0.028863018 -0.023814287
0001e0 bf dd b5 bd c4 e6 fb bd 9c a4 75 3e 9f 6e bf 3d
       -0.08880185 -0.122998744 0.23988575 0.09347271
0001f0 7e f6 6a be cf f2 5d bd f2 fb 35 3e 7d 84 e0 bd
       -0.22945592 -0.05418664 0.17771891 -0.1096277
000200 3c 52 7a bd 16 14 5d be 2a d8 40 3d e9 d7 2f bc
       -0.06111358 -0.21589693 0.04708115 -0.010732629
000210 4b 9c 05 bd f6 07 f8 bd ec c3 57 bd fc a6 6e bd
       -0.032619756 -0.121108934 -0.05267708 -0.058264717
000220 c9 0e f3 3d 37 f8 35 3d 62 1d ba 3e 93 56 9a be
       0.118680544 0.04442617 0.36350542 -0.30144176
000230 25 f6 59 3d 67 2f 1e 3e e1 8d 92 be ef 8c cd 3d
       0.053213257 0.1544777 -0.2862387 0.100366466
000240 a4 d8 8c be 33 dc 02 3e d9 88 82 bd ac 10 b4 be
       -0.27509034 0.12779312 -0.06373758 -0.3516897
000250 88 c1 9c be 1e f1 ea 3d 89 ad 88 bd b8 26 81 be
       -0.30616403 0.11471771 -0.06673724 -0.25224853
000260 f1 97 5c be 22 f4 91 3e 2e 68 f8 3d f8 0a 5b be
       -0.21542336 0.2850657 0.12129246 -0.21390903
000270 5c 25 d7 bd 93 33 3f be 22 ed 61 bd 80 f4 a1 3d
       -0.105051726 -0.18672018 -0.055157788 0.07907963
000280 f3 b0 84 bd 43 d7 9d 3d 74 cf ef bc 74 49 6b 3d
       -0.06479063 0.077070735 -0.029273726 0.057443097
000290 1f f4 3a 3e 67 1e 38 bd 26 96 00 bc c6 20 aa be
       0.18257187 -0.04495087 -0.007848298 -0.3322813
0002a0 ec 35 19 3c 18 06 74 be 2e a4 a4 3d 58 6d a8 bd
       0.009351235 -0.2383045 0.08039127 -0.08223981
0002b0 60 13 04 bd 82 e0 64 bd 6f f6 a1 3c 04 22 52 be
       -0.03224504 -0.05587817 0.019770829 -0.20520788
0002c0 eb 65 8c bc cc f3 50 be ea ff 0a 3e 0e 71 06 be
       -0.017138442 -0.20405501 0.13574186 -0.13129064
0002d0 fc a4 c3 be 8b 21 20 be 35 0a b6 bc 95 9f 0b be
       -0.3821181 -0.15637796 -0.022221664 -0.13635094
0002e0 9e 21 62 bd 29 2a 78 bd 9b c7 d4 3c 08 4b a6 3d
       -0.05520784 -0.060587082 0.025974086 0.0811978
0002f0 c5 70 30 3e 9a 99 a0 be da 19 c5 3d 65 3e 08 3d
       0.17230518 -0.3136719 0.096240714 0.03326263
000300 aa 72 b1 3d 70 42 46 bd c5 65 28 3d 16 2f 9e bd
       0.086644486 -0.048403203 0.04111268 -0.07723825
000310 00 a5 55 be 03 ae 5a 3d 32 a0 13 3d 7b 4b b7 be
       -0.20863724 0.053388607 0.036041446 -0.35799775
000320 f8 08 7e be 41 dc a4 3d ba 8b 71 bd 91 a8 3c be
       -0.24808109 0.080498226 -0.058971144 -0.18423678
000330 95 13 30 be fd 53 c6 bd a5 21 58 bc 07 29 54 be
       -0.1719497 -0.09683988 -0.013191615 -0.20718776
000340 62 24 19 3c c2 7e 03 3d d4 2a 66 3b bf 3c 94 be
       0.009347053 0.032103308 0.0035120742 -0.28952596
000350 85 d0 66 3e 3f c9 2d be ff b2 69 bd e0 73 ec bc
       0.22540481 -0.169713 -0.05705547 -0.028863847
000360 df 9b 63 3e bd 59 af 3d 74 97 51 3e ea f4 2c 3e
       0.22227429 0.08562038 0.20467931 0.16890302
000370 65 5d 00 3e c7 a7 97 be 82 0c 9a 3d 45 5c a9 bd
       0.12535627 -0.2962019 0.07521917 -0.08269552
000380 f4 1f d3 3d af ba 09 3c fb a0 ed 3d dd a3 a6 b8
       0.10308829 0.008406325 0.1160297 -7.946019e-05
000390 99 cc 8e bd a7 e1 ab bc 8a 9e 22 3e a4 ea ee bd
       -0.06972618 -0.020981623 0.1588079 -0.11665848
0003a0 59 00 8f 3e 52 28 08 3d f9 40 33 3e 9c 61 07 bd
       0.27929953 0.033241577 0.17505254 -0.033052072
0003b0 77 47 db ba 8b 9a 1e 3d 72 1e 28 3d c2 75 84 3d
       -0.0016729672 0.038721602 0.04104466 0.06467773
0003c0 8c fb 56 be 70 f4 17 3e 6b d7 a3 be 32 8d ae bc
       -0.20994395 0.1483934 -0.32000288 -0.021307562
0003d0 bf 29 7e 3d 79 84 b4 3d ba 86 9c be 47 27 5a bd
       0.06205153 0.0881433 -0.30571538 -0.053260114
0003e0 20 d7 85 bc b6 6d 39 be 8d ae dc bd 8a 2e a1 3c
       -0.016337931 -0.18108258 -0.107754804 0.019675512
0003f0 85 f2 01 bf 59 ec 11 3e d9 02 e9 bd dd 7d 59 3e
       -0.5076068 0.14250316 -0.11377496 0.2123942

fc2.bias f4 [64]
000000 66 50 9a bd 2e d2 3b 3d 81 af 03 3d 76 1a d8 3c
       -0.07534866 0.04585474 0.032149795 0.026379805
000010 60 2f 24 3e 09 31 6b be bf cb 3b bc 46 e1 ce bc
       0.16033697 -0.22967924 -0.011462151 -0.025253903
000020 ba eb 70 3e 3d cb b9 3e 99 f8 eb bd 14 7e 23 3e
       0.23527423 0.3628787 -0.115220256 0.15966064
000030 d9 95 30 3e 17 33 9d bd 88 d4 b2 bd 3a 6d ae 3d
       0.17244662 -0.0767576 -0.08731943 0.08516927
000040 7b 77 17 3e 33 d8 d8 bc 19 0b 2a be f8 b4 e2 3d
       0.14791672 -0.02647028 -0.16605796 0.11069673
000050 c1 13 4c 3e 1a 5a e4 3e db 18 d6 bd d9 12 94 bd
       0.1992941 0.44599992 -0.104539596 -0.072301574
000060 78 dd 9d bd a9 06 01 bd 99 92 09 3e bb d7 62 bd
       -0.077082574 -0.031500492 0.13434829 -0.055381518
000070 59 b6 f7 3c 4d 9c 28 bd 74 60 b6 3d 2a 5e b4 bc
       0.030238317 -0.041164685 0.08905116 -0.022017557
000080 c0 4d d4 bb 83 c0 cb 3d 89 de 85 bc 68 7d ce b9
       -0.006478995 0.09948828 -0.016341465 -0.00039384817
000090 00 28 94 bd 4e fa ab bd ae 7f 0a bd ac a6 d5 bd
       -0.07234192 -0.08397351 -0.03381317 -0.10432181
0000a0 4f 7a cf bd ab fb e2 3e 16 d1 a3 3e 0c 3e e1 bd
       -0.101307504 0.44332632 0.31995457 -0.109981626
0000b0 d0 68 22 3d e5 b5 23 be 04 cf 80 3e dc 91 d8 bc
       0.03965074 -0.15987356 0.2515794 -0.026436739
0000c0 3c 33 a3 3d 70 2c 50 bd 51 7e 14 bd c8 df c4 3e
       0.079687566 -0.05082363 -0.036253277 0.38451982
0000d0 52 11 d6 bd 72 42 29 be b2 86 22 3e 31 18 3a be
       -0.10452522 -0.16529253 0.15871695 -0.18173291
0000e0 73 f0 12 be ff 0a eb bd 47 29 3f bc 06 fb 9e bc
       -0.14349537 -0.11476707 -0.011667556 -0.019406807
0000f0 de c8 64 3d c7 b9 7d 3e b9 6d cf 3d 92 a2 d0 bd
       0.055855624 0.247779 0.1012835 -0.10187258

fc3.weight f4 [4, 64]
000000 75 81 43 3e c6 02 9e 3e 06 30 c8 3e 37 2f 36 3c
       0.19092353 0.3086149 0.3909914 0.011119655
000010 45 c4 68 3e a3 cf 45 be ca eb ea 3e 0c 95 24 be
       0.22731121 -0.19317488 0.45883018 -0.16072482
000020 bf 42 d5 3d d3 bf f3 3d 19 80 e2 bd 7f 5f 52 bc
       0.104131214 0.11901822 -0.11059589 -0.012840151
000030 8d 02 1e 3e 49 95 17 3e 78 05 f8 bc 7b 53 19 3e
       0.1543066 0.14803042 -0.030276045 0.14973252
000040 30 f7 79 3e c5 3c b9 3d 0e 86 e1 bd c2 0a 39 3e
       0.24410701 0.09044794 -0.11011897 0.1807051
000050 aa d7 0a 3e c1 7a 01 3e 03 b2 4c 3d 49 6d 8d be
       0.13558832 0.12644483 0.049974453 -0.2762244
000060 ad 64 1f 3e 87 5a 0e 3d b2 1f 90 be 7d 39 c3 bc
       0.15565749 0.034754302 -0.28149182 -0.023831123
000070 d5 bf e1 3e 11 1c 34 be 47 58 fb be 42 05 e9 3d
       0.4409167 -0.17588831 -0.49090788 0.11377956
000080 43 b1 94 bd 7d cd 75 3e 1e 8e 0e 3e 00 da 9b 3e
       -0.072603725 0.24004169 0.13921401 0.30439758
000090 71 7c da 3d 7a fc 1e be 67 95 15 be 92 ce 77 3e
       0.106682666 -0.15526 -0.14607774 0.24199894
0000a0 fa cd 74 3e 95 b3 15 3e 76 88 c1 3d 91 54 e9 bd
       0.23906699 0.14619286 0.09449856 -0.11393083
0000b0 89 e6 a4 bb 66 46 62 bd e8 51 41 3e 22 ea d1 3e
       -0.0050323647 -0.05524292 0.18878901 0.40998942
0000c0 60 5d c8 3d 9e ed 86 3e c7 ed d9 3e a4 99 f8 3d
       0.09783435 0.26353163 0.42564222 0.121386796
0000d0 fa 4b be 3d f4 94 11 be 59 63 a8 3d 7d b3 b2 bd
       0.09291835 -0.14216977 0.08222074 -0.08725641
0000e0 3b 26 a6 be 01 fd 23 be c1 0e a9 3c 4c 5b 32 3e
       -0.32451043 -0.16014482 0.020636918 0.1741764
0000f0 a0 a4 45 bd 1f f6 2f 3e 97 6d e8 3d 56 32 00 3c
       -0.0482527 0.17183731 0.113490276 0.007824501
000100 7a 70 87 3e 62 15 4a 3e 4f 1c bd 3e b7 94 e6 bc
       0.26453 0.1973472 0.3693566 -0.028147085
000110 93 3a 53 3e 10 dc 4f be cf 13 c3 3e 7e 6e 9b bc
       0.20627813 -0.20298791 0.3810105 -0.018973585
000120 d3 05 c0 3c d6 26 c2 3d 6d e6 a3 bc b0 23 ce bc
       0.023440277 0.094800636 -0.020007337 -0.025163502
000130 23 e1 e2 3d c3 6b e8 3d 64 da 15 3c 88 dd 2e 3e
       0.11078098 0.11348679 0.009146307 0.17076695
000140 d6 a8 4a 3e 54 f7 9a 3e 95 eb c2 be 6c 58 4c 3e
       0.19790968 0.3026682 -0.3807036 0.19955605
000150 2a 06 d6 3d 67 05 73 3e eb fa 4f 3c b7 de 7a bc
       0.104503945 0.2373253 0.012694101 -0.015311888
000160 12 55 d4 3e 3d 71 e3 3e 2b 57 f3 3c 57 34 05 bf
       0.41471153 0.4442233 0.02970465 -0.5203299
000170 cb 63 98 3e e9 7c a5 bd 5a f0 a1 3d 4b 51 45 3e
       0.29763636 -0.08080465 0.079071715 0.19269292
000180 c0 fe 9c be 17 07 db 3e 70 5d 4a 3e cd 31 5e 3e
       -0.3066311 0.42778847 0.19762206 0.21698685
000190 9e 58 b5 3d 69 67 c0 bd b0 b9 82 bc 0d 41 57 3e
       0.08854793 -0.09394724 -0.015957683 0.21020909
0001a0 ab f1 4d be 0b 77 30 3e 81 6f 0c 3d 28 44 cf 3d
       -0.2011172 0.17232911 0.034286026 0.10120422
0001b0 76 a4 7c be 29 02 92 bc 6d 6f 35 3e 51 b7 9e 3e
       -0.24672112 -0.017823296 0.17718287 0.30999234
0001c0 35 9e 00 3e 0e 98 67 3e 1c fb c0 3e 81 59 71 3d
       0.12560351 0.22616598 0.3769158 0.05892325
0001d0 ad 89 18 3e 29 ac 0d be 2a 20 c8 3d ef af 4b 3d
       0.14896269 -0.13835205 0.0977176 0.04972833
0001e0 a0 6b 66 be da db 0e be 0f 78 bc 3d a6 17 7a 3d
       -0.22501993 -0.13951054 0.09202587 0.06105771
0001f0 b0 8c ab be 1f 5a 7b 3d 68 74 9c bd 4f 00 91 bd
       -0.33505774 0.061365243 -0.0763939 -0.07080137
000200 bf 3e f1 3e b9 aa 65 3e 89 3b 46 3e 07 04 43 3e
       0.47118184 0.22428407 0.19358648 0.19044505
000210 b6 78 81 3e e3 f0 ff bd 8b 0b ec 3e c6 bf 83 bd
       0.25287408 -0.12497117 0.46102557 -0.06433062
000220 b2 d9 9f 3d ba 4c c0 3d ac 6a 24 be e1 ec c8 3e
       0.07805194 0.093896344 -0.16056317 0.39243224
000230 1a 78 36 3e f0 55 98 bc 6b 85 b8 bd 58 12 d1 3d
       0.17819253 -0.018595666 -0.090098225 0.10208577
000240 d1 d9 74 3e ed fd d4 3c 37 a0 33 be 6c 2b d5 bc
       0.23911215 0.025999987 -0.17541586 -0.026021682
000250 8f b1 8f 3d e4 69 54 3e 14 08 03 bd 2d 79 e7 3c
       0.070162885 0.20743519 -0.031990126 0.028256023
000260 5c 6c f3 3e f3 97 09 3f d1 ca 2e be 27 ad 01 be
       0.4754361 0.5374748 -0.17069556 -0.12663709
000270 23 dd 8d 3e 2a c7 08 3d f6 e2 15 be 28 1f 62 3c
       0.27707776 0.033393063 -0.1463736 0.013801374
000280 96 a1 9a bd b4 82 41 bd ae 1d 03 3f 78 f1 d3 3e
       -0.07550351 -0.04724379 0.5121716 0.41395164
000290 21 a6 25 be 21 29 6a be ef f2 9a be 45 02 00 be
       -0.16176654 -0.22867252 -0.3026347 -0.12500866
0002a0 bc fe a7 3d f6 a1 1d 3e 1e 46 30 3e 92 5f 82 be
       0.082028836 0.15393814 0.17214248 -0.2546354
0002b0 6f e5 ab bd 30 0d e3 3a 31 4d 21 3e 40 99 86 3e
       -0.0839337 0.0017322656 0.15752102 0.26288795
0002c0 67 48 ba 3e 66 42 66 3d 81 58 a6 3e 6f 9f 41 3e
       0.36383364 0.056215666 0.32489398 0.18908475
0002d0 80 6e 0c 3d 85 1b 46 3e 12 2a 2c 3e 49 09 58 3e
       0.03428507 0.19346435 0.16812924 0.21097292
0002e0 73 1c a3 be fa a1 90 bd ca 01 9f 3d 96 b8 54 3b
       -0.31857643 -0.070621446 0.07764013 0.0032458655
0002f0 d1 57 9b be 75 eb 14 3e 54 8c fb be 5d 66 e9 bd
       -0.30340436 0.14542945 -0.491305 -0.11396477
000300 12 09 c5 bd 4f 6a 6b 3e de ca 2e 3e 26 81 c7 be
       -0.09620871 0.22989772 0.17069575 -0.3896572
000310 08 25 4d 3c ef c7 88 bd 35 0f 57 3e c0 ae 26 3c
       0.012521036 -0.06678759 0.21001895 0.0101735
000320 87 4a ca 3d 5f f0 56 3e 90 6c 0a 3d 7c 36 a8 be
       0.09877496 0.20990132 0.03379494 -0.32854068
000330 3f 26 54 3e 42 d5 8a 3e a7 a5 82 3d ac 0f 22 3e
       0.20717715 0.27115828 0.06379252 0.15826291
000340 eb 78 99 3e d0 fe f2 3e ab 6d 36 be df ef 31 3e
       0.29975066 0.47460032 -0.17815273 0.1737666
000350 7d 2f 23 3d 37 ec 66 3e dd c7 be bd 68 f0 00 3e
       0.03984021 0.22551046 -0.09315465 0.12591708
000360 6f 73 34 bc 37 21 a1 be bb 9e 66 3d ae a0 ba 3d
       -0.01101385 -0.31470653 0.05630372 0.091126785
000370 ae c0 a8 3e 83 12 74 be db 2e 54 be fc 44 38 3e
       0.32959503 -0.23835187 -0.20720999 0.17995065
000380 74 10 a1 be eb 43 17 3f f5 75 dc 3d 05 b2 4c 3e
       -0.31457865 0.5908801 0.10764686 0.19989784
000390 1f 75 7f be 54 3e 4d bd 61 ab 30 3e 57 53 66 3d
       -0.24947022 -0.05010827 0.17252876 0.056231823
0003a0 ac ed f9 be b9 a5 3b 3e 0e fc db 3d e2 68 b0 be
       -0.48814142 0.18324937 0.10741435 -0.3445502
0003b0 34 13 0d 3e f8 f5 28 be d9 15 e0 3d 7b fa 0c 3f
       0.13776857 -0.1650008 0.10941667 0.550697
0003c0 28 dd 47 3e 50 3d a0 3d a9 f6 38 3f f6 c0 f7 3d
       0.19517958 0.078241944 0.72251374 0.12097351
0003d0 c5 8f 3b 3e f5 a9 d8 bc e0 e9 01 3e cd ec b1 3e
       0.18316562 -0.02644823 0.12686872 0.34750977
0003e0 fc 59 b6 be f0 3b 4c be 95 db 8e be 20 72 99 ba
       -0.35615528 -0.1994474 -0.27901903 -0.0011706986
0003f0 06 31 cd be 44 a5 99 3d 64 f5 b2 bc 09 38 d6 3e
       -0.40076464 0.07502225 -0.021845527 0.41839626

fc3.bias f4 [4]
000000 9f 2f 83 3e ac 6f 6b 3e e8 c1 21 3e fa 6a 15 3e
       0.2562227 0.22991818 0.15796626 0.1459159
