checkpoint.pth (torch_old, 28391 bytes, 6 tensors)

fc1.weight f4 [64, 37]
0	0x3dd89c43	0.105766796
1	0xbe0d56d2	-0.1380265
2	0xbe1ba1dc	-0.15198463
3	0xbda49da0	-0.08037877
4	0xbe40099d	-0.18753667
5	0xbd1918eb	-0.03737728
6	0x3dc260cf	0.09491121
7	0x3e48dc91	0.1961539
8	0xbea93056	-0.3304469
9	0xbd8ec215	-0.06970612
10	0xbb512561	-0.0031913149
11	0xbdac8beb	-0.08425125
12	0xbe3c3259	-0.18378581
13	0xbda49c82	-0.08037664
14	0xbe71ab7f	-0.23600577
15	0x3d42757f	0.047475334
16	0xbc971185	-0.018440971
17	0x3de6004a	0.11230524
18	0xbe1dae64	-0.15398556
19	0x3c11b557	0.008893332
20	0x3d160396	0.036624514
21	0x3da9a3c1	0.08283187
22	0x3e8bd99f	0.2731447
23	0xbdfd876e	-0.12379347
24	0xbc9191be	-0.01776969
25	0xbd262b6c	-0.040568754
26	0x3e4e8ba6	0.20170459
27	0xbd4e9046	-0.05043056
28	0xbe8d8a6f	-0.2764468
29	0x3dc4bcd9	0.09606332
30	0xbd11a746	-0.035559915
31	0x3e108dc7	0.14116584
32	0x3bcefc97	0.006316732
33	0xbe9bd254	-0.30433905
34	0xbe857c0c	-0.26071203
35	0xbd459536	-0.048238
36	0xbc542c58	-0.0129500255
37	0x3d306dce	0.043073468
38	0x3e3450d0	0.17608953
39	0x3d378d0f	0.04481226
40	0x3c9ddd70	0.019270629
41	0xbe25cecf	-0.16192172
42	0x3dd4afe4	0.10385111
43	0xbe539fdd	-0.20666452
44	0xbe24d45c	-0.16096634
45	0xbe2f2114	-0.17102462
46	0xbf655cf8	-0.89594984
47	0x3d149591	0.03627545
48	0xbd68b96b	-0.056817453
49	0x3d35f848	0.044426233
50	0x3e44acf0	0.19206595
51	0x3e8fd474	0.28091776
52	0x3de0c028	0.10974151
53	0xbd1214b3	-0.03566427
54	0x3baed7c9	0.005335782
55	0x3bcbabb8	0.006215539
56	0xbcc91a25	-0.0245486
57	0xbda4490e	-0.080217466
58	0xbd9290a2	-0.07156493
59	0xbe1a29b8	-0.15054977
60	0xbcbd1ff3	-0.023086524
61	0x3d2352fd	0.039874066
62	0xbe2e160d	-0.17000599
63	0x3db03cfd	0.086053826
64	0x3e2445fe	0.16042325
65	0x3e1d0ab1	0.1533611
66	0x3dfb134d	0.12259541
67	0x3d87ff77	0.06640523
68	0x3d1ca30f	0.038241442
69	0x3d9dcb22	0.0770476
70	0x3df23a23	0.11827495
71	0x3e4f49f0	0.20243049
72	0x3cbe25ce	0.023211386
73	0x3c38811d	0.011261252
74	0x3df1c669	0.11805422
75	0x3e6b3514	0.22969466
76	0x3d9aeee7	0.07565098
77	0x3dd2b623	0.10288646
78	0xba8b86c0	-0.0010645017
79	0xbeb2215a	-0.3479107
80	0x3e39b350	0.18134809
81	0x3e7e73c1	0.24848844
82	0x3e2288a9	0.15872444
83	0x3da4e959	0.0805232
84	0xbc060ec8	-0.008182235
85	0x3d3c5412	0.045978613
86	0x3dac488a	0.08412273
87	0x3d6be4af	0.057591137
88	0x3dbe38dd	0.092881896
89	0xbd21eb07	-0.03953078
90	0x3d841980	0.06450176
91	0x3d3174c7	0.04332426
92	0x3e504c09	0.20341505
93	0x3f209c8c	0.6273887
94	0xbddcf8f5	-0.10789672
95	0x3bc0b927	0.005881447
96	0x3d8ab06b	0.0677193
97	0x3d5127d6	0.05106338
98	0x3e0e8a84	0.13920027
99	0x3c6f29f6	0.014597407
100	0x3d9b1966	0.07573204
101	0x3e4813b0	0.1953876
102	0xbd35c513	-0.044377398
103	0xbe9bb601	-0.30412295
104	0xbdfe8630	-0.12427938
105	0x3c769572	0.015050279
106	0xbcdf7d13	-0.02728132
107	0xbb58eea8	-0.0033101235
108	0x3cd7aba4	0.026326962
109	0x3d056df3	0.03257556
110	0xbb84c869	-0.004052211
111	0x3e445027	0.191712
112	0xbe63fb41	-0.22263815
113	0x3e1a30f6	0.1505774
114	0xbbaea31b	-0.0053295023
115	0xbe981acc	-0.29707944
116	0xbe118d7c	-0.14214128
117	0xbde229e6	-0.11043148
118	0x3e7673b0	0.24067569
119	0x3dbd72bd	0.092504
120	0xbed83253	-0.42225894
121	0x3cd4c63c	0.025973432
122	0xbdf7915a	-0.120882705
123	0x3e365acb	0.17808072
124	0xbd90ae38	-0.070644796
125	0x3d62e089	0.055389915
126	0xbd7456cc	-0.05965309
127	0xbaa3b712	-0.0012490472
128	0xbd531339	-0.051532004
129	0xbdcff1c3	-0.10153534
130	0x3bc4a54b	0.00600115
131	0x3db71974	0.08940402
132	0x3dd5ad9d	0.10433505
133	0x3d28e306	0.04123213
134	0xbd9c51fc	-0.07632825
135	0xbd8a0ba0	-0.067404985
136	0x3dc70d0d	0.09719286
137	0xbcc9ea36	-0.024647813
138	0x3cd746f6	0.026278954
139	0xbc674e14	-0.014117736
140	0xbeadf9ee	-0.33979744
141	0x3e283fc0	0.16430569
142	0x3e3e38b7	0.18576322
143	0x3dc6ae7f	0.09701251
144	0xbe88234e	-0.26589435
145	0xbf0fd2a3	-0.5618078
146	0x3dd8bac9	0.105825014
147	0x3c177db0	0.009246275
148	0xbe18cd5a	-0.14922085
149	0xbe2c6d06	-0.16838464
150	0xbe030fb3	-0.12798958
151	0xbecf8bd4	-0.40536368
152	0x3e197cfe	0.14989087
153	0x3b96c651	0.004601278
154	0x3e07b614	0.13253051
155	0xbe4f073d	-0.20217605
156	0x3c41f23e	0.01183754
157	0xbe8932f8	-0.267967
158	0xbd3f0731	-0.046637718
159	0xbe3a2e33	-0.18181686
160	0xbd4d0e5a	-0.050062515
161	0xbe6a975f	-0.22909306
162	0xbecb9870	-0.39764738
163	0xbd96bf54	-0.07360712
164	0xbde3797e	-0.11107157
165	0xbe0e5b70	-0.13902068
166	0xbdae873a	-0.08521886
167	0x3de67b93	0.11254039
168	0xbd08a8e2	-0.033364184
169	0xbdfc00b2	-0.1230482
170	0xbda2eca9	-0.079552956
171	0xbd81005f	-0.06298899
172	0xbe3ea03b	-0.1861581
173	0x3cc8a113	0.024490869
174	0xbe2238a2	-0.15841916
175	0x3e0d25eb	0.13783996
176	0xbe5411c8	-0.20709908
177	0xbe115299	-0.14191665
178	0x3e0075dd	0.12544961
179	0xbeb57e03	-0.35447702
180	0x3dcaa5e9	0.09894926
181	0xbe327cc7	-0.17430411
182	0xbd30bd8e	-0.043149523
183	0x3d682702	0.056677826
184	0x3d531f53	0.051543545
185	0xbd6761d9	-0.0564898
186	0xbc2ccee5	-0.010547374
187	0xbdc4f3ed	-0.09616838
188	0x3d392480	0.045200825
189	0x3dd1fb9a	0.10253067
190	0x3df5f712	0.120100155
191	0x3e112448	0.14173996
192	0xbe18dbc4	-0.14927584
193	0xbd7df8a9	-0.06200472
194	0xbf215b31	-0.6302977
195	0xbe0c5d4b	-0.13707463
196	0x3d3ce36a	0.046115316
197	0xbdb78529	-0.08960945
198	0xbd1ae754	-0.037818268
199	0xbdb9ecb0	-0.09078348
200	0xbd2303bb	-0.03979848
201	0x3d9e9d69	0.07744867
202	0xbe5704d5	-0.20997937
203	0x3d761ca9	0.060085926
204	0xbd75e69f	-0.06003439
205	0xbd054f57	-0.032546367
206	0x3d97bf60	0.07409549
207	0x3e322cb9	0.17399873
208	0x3cc144f3	0.023592448
209	0x3d09f279	0.033678506
210	0xbe08a96e	-0.13345882
211	0xbd94d9f2	-0.07268132
212	0x3e3e18e3	0.18564181
213	0x3d7b8293	0.061403822
214	0x3e9eaf1a	0.30992967
215	0xbdf1634b	-0.11786517
216	0x3dc03277	0.093846254
217	0xbdf0adc6	-0.11751895
218	0x3e169684	0.14705855
219	0xbec977e5	-0.39349285
220	0xba6b275c	-0.00089704036
221	0x3c34f18f	0.01104392
222	0xbd8f90db	-0.07010051
223	0xbdda3e91	-0.10656465
224	0x3cd65773	0.026164746
225	0x3dca3461	0.09873272
226	0xbd5443da	-0.05182252
227	0xbd6cacda	-0.05778203
228	0xbd8c74bd	-0.068582036
229	0x3d58bbc7	0.052913453
230	0xbe3ffea3	-0.1874948
231	0x3ed19aca	0.40938407
232	0x3dcca7c3	0.099929355
233	0x3dc72ec2	0.09725715
234	0x3c01daa6	0.007925665
235	0xbdc52622	-0.09626414
236	0x3e21b7f3	0.15792827
237	0xbe5027e4	-0.20327717
238	0xbe31f38e	-0.17378065
239	0xbb0f11c3	-0.0021830655
240	0x3e600078	0.21875179
241	0x3d957063	0.07296827
242	0xbd27c472	-0.04095883
243	0xbd8c58d6	-0.068528816
244	0x3d0c9e03	0.03433038
245	0xbd579c51	-0.05263931
246	0x3d5fe8c0	0.054665327
247	0xbe3f449e	-0.18678519
248	0xbdb03e86	-0.086056754
249	0x3d324088	0.043518573
250	0xbd5ffc5d	-0.05468403
251	0x3d9227cd	0.07136498
252	0x3df9ab55	0.12190882
253	0xbdea58de	-0.11442731
254	0xbe192ec2	-0.14959243
255	0x3d094809	0.033515964

fc1.bias f4 [64]
0	0x3e0b2948	0.13589966
1	0xbd1b4632	-0.03790874
2	0xbdb2a4ef	-0.08722865
3	0xbcc0ca83	-0.023534065
4	0x3ddb39ec	0.10704407
5	0xbd8eb1e5	-0.069675244
6	0xbdd9025d	-0.10596154
7	0x3dd34c0c	0.10317239
8	0x3ca93118	0.020653293
9	0xbe6b1b52	-0.2295964
10	0x3e4a838e	0.19776747
11	0x3e3a24b1	0.18178059
12	0x3e357169	0.17719044
13	0x3e5b5b10	0.21421456
14	0x3d472e1d	0.04862796
15	0xbd6c8cf3	-0.057751607
16	0x39bd1afa	0.00036068988
17	0x3d140f49	0.03614739
18	0x3c9db630	0.019251913
19	0xbe53fe52	-0.20702484
20	0xbd8e263c	-0.069408864
21	0x3d43a53e	0.04776501
22	0xbc126bfa	-0.008936876
23	0xbd76e40a	-0.06027607
24	0xbded9acb	-0.1160179
25	0x3c932627	0.017962528
26	0xbdfccb7f	-0.12343501
27	0xbe4d000c	-0.20019549
28	0x3dd9e403	0.10639193
29	0x3e031266	0.12799987
30	0xbdcc23a1	-0.09967733
31	0xbe251335	-0.16120608
32	0x3e016d30	0.12639308
33	0x3ceb872f	0.028750984
34	0xbdd4b950	-0.10386908
35	0x3caa9587	0.020823253
36	0xbd45c5f4	-0.048284486
37	0x3d56f0dd	0.0524758
38	0xbc0d8916	-0.008638641
39	0xbe3184f4	-0.17335874
40	0xbd5f4239	-0.054506514
41	0x3c3914c6	0.011296457
42	0xbe203cfa	-0.1564826
43	0x3e05408d	0.13012905
44	0x3d23f2d4	0.0400265
45	0xbd754bab	-0.059886616
46	0x3dcfd01c	0.101471156
47	0xbe1e1e57	-0.15441261
48	0xbdf559d8	-0.11980027
49	0x3d112d4c	0.03544359
50	0xbe1c42d3	-0.15259866
51	0x3df195c5	0.117961444
52	0xbd0b9492	-0.034077235
53	0xbd2b0d1b	-0.041760545
54	0xbe5b4d11	-0.21416117
55	0x3d14add0	0.036298573
56	0x3dc98485	0.09839729
57	0xbdf25253	-0.11832108
58	0xbe248f8f	-0.16070388
59	0xbd4b09ea	-0.04957
60	0xbc868785	-0.016422043
61	0x3d63b92a	0.055596508
62	0x3e241028	0.16021788
63	0x3de4d07a	0.11172576

fc2.weight f4 [64, 64]
0	0xbd517e45	-0.05114581
1	0x3e178c82	0.14799693
2	0xbe35cd2f	-0.17754053
3	0x3e14eccd	0.14543457
4	0x3de6e7f4	0.1127471
5	0x3d5b1f17	0.053496446
6	0xb992f78a	-0.0002803172
7	0xbe24779c	-0.16061252
8	0xbd900512	-0.07032217
9	0x3d845f2e	0.064634666
10	0xbd729cd7	-0.059231605
11	0x3e697b23	0.22800879
12	0xbe0aff6a	-0.13573995
13	0x3e0aca8b	0.13553827
14	0xbdc1f534	-0.09470597
15	0xbd1c26dc	-0.038122997
16	0xbd0b0735	-0.03394242
17	0xbdb1f32d	-0.0868896
18	0xbbfa5dda	-0.0076405825
19	0x3d965489	0.073403426
20	0x3e33ad37	0.17546545
21	0xbd864a44	-0.06557134
22	0x3d44fc6d	0.048092294
23	0xbe420619	-0.18947639
24	0xbe0d1ef2	-0.13781336
25	0xbe2381d6	-0.15967497
26	0x3e1acf9a	0.15118256
27	0x3d8192d2	0.06326832
28	0x3d617f44	0.05505301
29	0x3e3304b1	0.17482258
30	0x3d5c0cdd	0.053723205
31	0x3ce41d00	0.02784586
32	0x3dbcc218	0.09216708
33	0x3dffaa8e	0.124837026
34	0x3d27e27d	0.04098748
35	0xbcbdcfda	-0.0231704
36	0xbe0bd8da	-0.13656941
37	0x3ebbb827	0.36663935
38	0xbe763fe1	-0.24047805
39	0xbdaa98c9	-0.08329923
40	0xbee89bd9	-0.45431402
41	0x3d842bb7	0.064536504
42	0x3e81a151	0.25318387
43	0xbe1c27f9	-0.15249623
44	0x3d91a1fc	0.07110974
45	0xbd95becd	-0.07311783
46	0xbe26919d	-0.16266485
47	0x3cc43872	0.023952696
48	0x3dcd2e63	0.10018613
49	0xbd6dda59	-0.05806956
50	0xbdd3d441	-0.103432186
51	0x3e00facd	0.12595673
52	0xbd8f2ede	-0.06991361
53	0xbf001fee	-0.5004872
54	0x3dbacafa	0.09120746
55	0xbe011da5	-0.12608965
56	0xbe65faa8	-0.22458899
57	0xbd61d434	-0.055134013
58	0xbd991980	-0.07475567
59	0xbcb585d0	-0.022158533
60	0xbe5e3bf6	-0.21702561
61	0x3e5fc964	0.21854168
62	0xbe71e217	-0.23621403
63	0xbdab4cd8	-0.08364266
64	0xbc9f4168	-0.019440368
65	0x3e41a10e	0.18909094
66	0xbe380bc6	-0.17973241
67	0x3dbd0125	0.09228734
68	0xbaee6a7c	-0.0018189694
69	0x3dcd304f	0.1001898
70	0xbefbe98c	-0.4920162
71	0xbd9fbed4	-0.078000695
72	0xbe018fbf	-0.12652491
73	0xbdae08d5	-0.08497778
74	0x3be3993a	0.0069457563
75	0x3ea1e746	0.3162176
76	0xbdd95ed6	-0.10613792
77	0x3d6e3877	0.058159318
78	0xbdf27562	-0.11838795
79	0x3da90417	0.08252733
80	0x3cc9f176	0.02465127
81	0xbd6231fd	-0.055223454
82	0xbe67bf2c	-0.2263152
83	0xbca49f56	-0.020095509
84	0x3ddc6529	0.10761482
85	0xbd067410	-0.03282553
86	0xbd014f87	-0.031569984
87	0xbdd7d63b	-0.10538908
88	0xbd891700	-0.0669384
89	0x3d50251f	0.05081665
90	0xbd87cdae	-0.06631027
91	0xbe490980	-0.1963253
92	0x3dc66f22	0.09689166
93	0xbce5e77c	-0.028064482
94	0xbcf1924a	-0.029488701
95	0xbe04fa08	-0.12986004
96	0xbe9f713e	-0.31141084
97	0x39ffec9b	0.00048813675
98	0xbeb2253c	-0.34794033
99	0xbe25cc7c	-0.16191286
100	0x3e0c79ae	0.13718292
101	0x3e997882	0.29974753
102	0x3e0884e9	0.13331951
103	0xbe208b53	-0.15678148
104	0xbe4c8587	-0.19972812
105	0x3ca54b00	0.020177364
106	0x3e8c5b44	0.2741338
107	0xbcac2dfa	-0.021018017
108	0x3c82575a	0.015910793
109	0xbde6dab8	-0.11272186
110	0xbe46aca1	-0.1940179
111	0xbbb762e0	-0.0055965036
112	0xbe49041a	-0.19630471
113	0x3e0b56c1	0.13607313
114	0xbddbb1d8	-0.107272804
115	0x3e0d0e1a	0.1377491
116	0xbe538d0c	-0.20659274
117	0xbdb0ba7d	-0.0862932
118	0xbe542e2b	-0.20720737
119	0xbd9a16b9	-0.07523865
120	0xbcabe556	-0.02098338
121	0xbdf25b4e	-0.11833821
122	0x3da09e65	0.07842711
123	0xbdb72f72	-0.08944596
124	0xbe86bda6	-0.26316565
125	0xbaac98c5	-0.0013168087
126	0x3db0e8d8	0.086381614
127	0xbd6cc8eb	-0.057808798
128	0x3c810185	0.015747795
129	0xbab5d637	-0.0013873045
130	0x3d46bda2	0.04852069
131	0xbe67f66c	-0.22652596
132	0xbdac5a6b	-0.08415683
133	0x3c90783e	0.017635461
134	0xbd8e8b31	-0.069601424
135	0x3e376c15	0.17912324
136	0x3d865004	0.065582305
137	0xbdacec8a	-0.08443554
138	0x3d3c3b6e	0.045955114
139	0xbec5bad1	-0.38619092
140	0xbd321853	-0.04348023
141	0x3d7d94d7	0.061909523
142	0x3ab975c5	0.0014149478
143	0xbea82383	-0.32839593
144	0x3d0ea006	0.03482058
145	0xbd618d20	-0.055066228
146	0xbd7fc4f5	-0.062443692
147	0xbec32d0e	-0.38120311
148	0xbe9f3e61	-0.3110228
149	0xbd297bfc	-0.041378006
150	0xbefa801c	-0.48925865
151	0xbe1c47d4	-0.15261775
152	0xbe0dcb96	-0.13847193
153	0x3d9f7c9e	0.07787441
154	0x3cb23357	0.021752996
155	0xbc9bec38	-0.019033536
156	0xbec1df54	-0.37865698
157	0xbeafedd5	-0.3436114
158	0xbd96ce8d	-0.07363615
159	0x3da17241	0.0788312
160	0xbdeed761	-0.11662174
161	0x3d342c49	0.043987546
162	0xbbd25d4c	-0.0064198133
163	0x3c625b30	0.013815686
164	0x3de43b44	0.111441165
165	0xbe66870e	-0.22512457
166	0x3e9bb898	0.3041427
167	0xbe08bfa3	-0.13354354
168	0x3e59da1b	0.21274607
169	0x3ace360e	0.0015732662
170	0xbe36604a	-0.17810169
171	0xbd5a2348	-0.053256303
172	0xbd47f6d1	-0.048819367
173	0xbd06e2f7	-0.032931294
174	0x3dc14597	0.09437101
175	0xbdc86438	-0.0978474
176	0xbe32067e	-0.17385289
177	0xbe4a1ab2	-0.19736746
178	0xbdffa289	-0.12482173
179	0x3d0d3994	0.03447874
180	0xbef0539b	-0.46938786
181	0xbeb145b4	-0.34623492
182	0xbda05050	-0.078278184
183	0xbdcc9138	-0.09988636
184	0xbdbb1724	-0.09135273
185	0xbddae56f	-0.10688292
186	0x3d6e69dd	0.058206428
187	0x3dbbba0c	0.09166345
188	0x3efde744	0.49590504
189	0xbdfe6789	-0.124220915
190	0x3d02c811	0.03192908
191	0xbdbfc101	-0.093629844
192	0xbc1a3ccf	-0.009413912
193	0xbd8b6365	-0.068060674
194	0x3dd9b955	0.106310524
195	0xbe462ebd	-0.19353767
196	0x3b2fd7d0	0.0026831515
197	0xbe256d05	-0.16154869
198	0xbe1a4622	-0.15065816
199	0xbe4a933d	-0.1978273
200	0xbb8a91a1	-0.004228786
201	0xbe400e46	-0.18755445
202	0xbdf540f2	-0.11975278
203	0x3e0eeb74	0.13957006
204	0x3d71338a	0.058887042
205	0xbd1cad61	-0.038251285
206	0xbe098b8d	-0.1343214
207	0x3dda4157	0.10656994
208	0xbcc70c13	-0.02429775
209	0x3d45e82f	0.04831713
210	0x3e3dbec9	0.1852981
211	0xbe3a431e	-0.18189666
212	0x3d45d25e	0.048296325
213	0x3d9044ef	0.07044398
214	0x3dbfca26	0.09364729
215	0xbd5aba62	-0.053400405
216	0x3e15aa3a	0.14615718
217	0x3e3f6825	0.18692072
218	0xbd34097f	-0.04395437
219	0xbbd1c466	-0.0064015863
220	0x3de0008d	0.10937605
221	0x3e5bdebf	0.2147169
222	0x3e144d86	0.14482698
223	0xbe66c5a7	-0.22536336
224	0x3de96d52	0.11397804
225	0x3cc3cf62	0.023902599
226	0x3e159aa2	0.14609769
227	0x3e6f2055	0.23352177
228	0xbde05ea6	-0.10955553
229	0x3cb41a97	0.021985335
230	0x3ec98559	0.3935955
231	0x3ce5c2a1	0.028046908
232	0xbe4b0d93	-0.19829397
233	0xbc877037	-0.016533
234	0xbe0032a1	-0.12519313
235	0xbe6d3902	-0.23166278
236	0x3c80ba85	0.01571394
237	0xbd2008b9	-0.03907082
238	0x3ca1852a	0.019716818
239	0xbdb826d9	-0.089917846
240	0xbe1e531f	-0.15461396
241	0x3d1af230	0.037828624
242	0xbd130a67	-0.035898592
243	0xbe0cf3f2	-0.13764933
244	0x3e2e4b13	0.17020826
245	0x3d40cdd1	0.04707128
246	0xbd0bf58d	-0.034169722
247	0x3dd0aa2b	0.10188707
248	0xbd6e81d2	-0.058229275
249	0xbd74beb4	-0.05975218
250	0xbe0094c5	-0.12556751
251	0xbb587290	-0.003302727
252	0xbed97056	-0.42468518
253	0x3da71da1	0.08159948
254	0xbdcadfdb	-0.09905978
255	0x3b8e785c	0.004347844

fc2.bias f4 [64]
0	0xbbb9ca47	-0.0056698653
1	0xbd3d9879	-0.046287987
2	0x3d81bf4f	0.06335317
3	0x3d6dd7ef	0.05806726
4	0x3ea64084	0.32471097
5	0xbe38a779	-0.18032636
6	0x3c165831	0.0091763
7	0x3d9b05d3	0.0756947
8	0x3e5fe551	0.21864821
9	0x3ebe6442	0.37185866
10	0xbdb5cdc1	-0.08877135
11	0x3e4f9c84	0.2027455
12	0x3d5c2931	0.05375022
13	0xbd873cb7	-0.06603377
14	0xbcbe333a	-0.023217786
15	0x3cd0fa88	0.025510088
16	0x3dddcc79	0.10830016
17	0xbd95b4c3	-0.07309868
18	0xbddf749f	-0.109109156
19	0x3e0c6208	0.13709271
20	0x3e8585f0	0.2607875
21	0x3ee405a9	0.44535568
22	0xbe243509	-0.16035856
23	0xbdc2d0cc	-0.09512481
24	0xbd71fc80	-0.059078693
25	0xbe1bcd4f	-0.15215038
26	0x3d3e5e32	0.04647655
27	0xbd2e6fe5	-0.04258718
28	0xbd94b915	-0.07261864
29	0x3da9a5ae	0.08283554
30	0x3da15e79	0.07879347
31	0xbc614710	-0.013749853
32	0xbcc52813	-0.02406696
33	0x3c81c253	0.015839731
34	0xba62ee13	-0.00086566916
35	0xbdc63f91	-0.09680093
36	0xbd448ed2	-0.047987767
37	0xbdd7a2c9	-0.10529096
38	0x3c40f39d	0.011776832
39	0xbd135132	-0.035966106
40	0xbda8441b	-0.08216115
41	0x3ed2681c	0.41095054
42	0x3ea74b92	0.32674843
43	0xbca6a76e	-0.020343509
44	0x3d9f57df	0.07780432
45	0xbdd28b65	-0.10280494
46	0x3e7ea196	0.24866328
47	0xbdd162bd	-0.10223911
48	0x3da4fac0	0.08055639
49	0xbd12e324	-0.03586115
50	0xbd8a436b	-0.0675114
51	0x3eba67b7	0.36407253
52	0x3d828e7d	0.06374834
53	0xbddc3781	-0.10752774
54	0x3e3d8cf0	0.18510795
55	0xbda4a1ef	-0.08038699
56	0xbe264aee	-0.16239521
57	0xbe12aec8	-0.14324486
58	0x3cf4061a	0.029788066
59	0xbc634cdf	-0.013873308
60	0x3da5482d	0.08070407
61	0x3e85045d	0.2597989
62	0x3d00783d	0.03136467
63	0x3aeb94b7	0.0017973398

fc3.weight f4 [4, 64]
0	0x3eb55dc5	0.35423103
1	0x3dddfa5f	0.1083877
2	0x3ea4bee6	0.32176894
3	0x3b82e8f4	0.0039950553
4	0x3e43c1f2	0.19116953
5	0xbdbcaf53	-0.09213128
6	0x3e8dc442	0.27688795
7	0xbeb079ff	-0.34468076
8	0x3e19a55b	0.15004484
9	0x3df42450	0.119209886
10	0xbda34611	-0.079723485
11	0x3e8d19fc	0.27558887
12	0x3eb2d517	0.349282
13	0x3de62717	0.112379245
14	0x3dcd695f	0.100298636
15	0xbdc9bba7	-0.09850245
16	0x3df9df9b	0.122008525
17	0xbe585e94	-0.21129829
18	0xbe32c92b	-0.17459552
19	0x3e0fc643	0.14040475
20	0x3d8f8689	0.070080824
21	0x3e0fe9f2	0.14054087
22	0xbe337e03	-0.17528538
23	0xbe53996b	-0.20663993
24	0x3de42fef	0.11141955
25	0xbe949223	-0.29017743
26	0xbe9c5125	-0.30530658
27	0x3e0064e5	0.12538488
28	0x3eda2d0c	0.42612493
29	0x3c430ad3	0.011904436
30	0xbeef84d0	-0.46781015
31	0x3d78cf0b	0.060744327
32	0x3d9f9e3a	0.07793851
33	0x3e7ea3c6	0.24867162
34	0x3d97e17e	0.07416056
35	0xb92f88ad	-0.00016740216
36	0x3e4fd774	0.20297033
37	0xbe470d5b	-0.19438688
38	0x3e245c36	0.160508
39	0x3eabf6d5	0.33586755
40	0x3e93c7bf	0.28863332
41	0x3e2c079b	0.16799776
42	0x3e05f113	0.13080244
43	0xbea35c62	-0.3190642
44	0x3eb84d16	0.35996312
45	0x3de1f98d	0.11033926
46	0x3e476978	0.19473827
47	0x3e88dbf0	0.267303
48	0xbdda2b9c	-0.10652849
49	0x3e3ff095	0.18744119
50	0x3e2db606	0.16963968
51	0x3dff6fdc	0.12472507
52	0x3e88e9f1	0.26740983
53	0xbdd48d1f	-0.10378479
54	0x3d9d0c5e	0.076683745
55	0xbd844afa	-0.06459613
56	0xbdcd31e7	-0.10019284
57	0xbecf3a4b	-0.40474162
58	0xbdd43227	-0.10361128
59	0x3e0b2e7b	0.1359195
60	0xbe1309ef	-0.14359258
61	0x3e30e3bf	0.17274378
62	0x3cadbf36	0.02120934
63	0x3ebc4b8b	0.36776385
64	0x3eb08a8d	0.34480706
65	0xbd2e7c7b	-0.042599183
66	0x3e9edb6b	0.31026778
67	0x3d9a30f4	0.07528868
68	0x3e020e9f	0.1270089
69	0xbde34e79	-0.11098952
70	0x3e400ce3	0.18754916
71	0xbe4638a4	-0.19357544
72	0x3db8de98	0.090268314
73	0x3e1ccb91	0.1531203
74	0x3cd56f1b	0.026053956
75	0x3e93cbd6	0.28866452
76	0x3eab84c6	0.33499736
77	0x3d8b8f5b	0.06814452
78	0x3d5aa647	0.05338123
79	0x3c86eb66	0.016469669
80	0x3e0aa44d	0.13539238
81	0x3e73d488	0.23811543
82	0xbe62d75a	-0.22152463
83	0x3e0ae973	0.13565616
84	0x3df23ba9	0.118277855
85	0x3e686525	0.22694834
86	0xbe515ab4	-0.20444757
87	0xbda11de2	-0.07867028
88	0x3e23cae1	0.15995361
89	0xbe5646fa	-0.20925513
90	0xbdc64852	-0.09681763
91	0x3eb07ec3	0.34471712
92	0x3d2fcf29	0.042922173
93	0x3d220428	0.039554745
94	0xbdd08df4	-0.101833254
95	0x3e26999c	0.16269535
96	0x3d8d7f6a	0.06909068
97	0x3e92824d	0.28615037
98	0x3e23565e	0.15950915
99	0xbd739924	-0.05947222
100	0x3e5403e0	0.20704603
101	0xbe7b4bbc	-0.24540609
102	0x3e06992f	0.13144372
103	0x3ea6eb52	0.3260141
104	0x3eb7545b	0.35806546
105	0x3e0ddd5e	0.13853976
106	0x3dae6958	0.085161865
107	0x3ec9302a	0.3929456
108	0x3ecb4906	0.3970415
109	0xbe1fdc16	-0.156113
110	0x3e2f6ba8	0.17130911
111	0x3f0c468e	0.5479516
112	0xbd44cf89	-0.048049483
113	0x3e17dd76	0.14830574
114	0x3e619cc7	0.22032462
115	0x3d130f09	0.03590301
116	0x3e1dfaf2	0.1542776
117	0xbc8a49b4	-0.016880848
118	0x3e2095d8	0.15682161
119	0xbd3ccbb8	-0.04609272
120	0xbe6db177	-0.23212229
121	0xbab3dcae	-0.0013722384
122	0xbdbd9e66	-0.09258728
123	0x3d8bb847	0.068222575
124	0xbd0d426a	-0.034487166
125	0x3d714053	0.058899235
126	0xbe064a66	-0.13114318
127	0x3ea2a8d0	0.3176942
128	0x3d4f26cf	0.05057412
129	0x3e941308	0.2892077
130	0x3e2442b4	0.1604107
131	0x3e0367c1	0.12832548
132	0x3e3b06a3	0.1826425
133	0x3e247db4	0.16063577
134	0x3e46523b	0.19367306
135	0xbe0ed095	-0.13946755
136	0x3dff3286	0.124608085
137	0x3dd9bf38	0.10632175
138	0xbdcccae7	-0.09999638
139	0x3f09acea	0.5377947
140	0x3ee29ed1	0.44261792
141	0xbef4e1b7	-0.47828457
142	0x3cec8baa	0.02887519
143	0x3e248aa9	0.1606852
144	0x3e76f441	0.24116613
145	0xbc5eea12	-0.013605611
146	0xbe1e836f	-0.15479825
147	0x3d89c1b6	0.067264006
148	0x3db4c324	0.088262826
149	0x3e503ebc	0.20336431
150	0xbdd619a0	-0.10454106
151	0x3e0891d8	0.13336885
152	0x3ee7d582	0.4528008
153	0xbe3feee7	-0.18743478
154	0xbe126e0b	-0.1429979
155	0xbeb5eab7	-0.35530636
156	0x3e328a47	0.17435561
157	0x3d466d85	0.04844429
158	0xbe89de66	-0.2692749
159	0x3c8c7653	0.017146265
160	0xbe793c19	-0.24339332
161	0x3e155819	0.14584388
162	0x3ea05db8	0.31321502
163	0x3dae6e2c	0.08517107
164	0x3eb456d6	0.352225
165	0xbe84415e	-0.2583112
166	0xbd8226ef	-0.06355082
167	0x3dc5da6d	0.09660802
168	0xbcfdf038	-0.030998334
169	0x3e1f07d7	0.15530334
170	0x3e205417	0.15657078
171	0xbe95640f	-0.291779
172	0x3e53b45f	0.20674275
173	0x3de5cacf	0.11220323
174	0x3e1900b1	0.1494167
175	0x3f15b230	0.5847502
176	0x3e07d281	0.13263895
177	0x3e1d3d50	0.1535542
178	0x3e0de289	0.13855948
179	0x3e539556	0.20662436
180	0x3d4aa5a9	0.049474392
181	0x3ddce923	0.10786655
182	0x3e00fdfb	0.12596886
183	0x3d6f3f4d	0.058409978
184	0xbe828dc2	-0.25498778
185	0xbe7b8df4	-0.2456587
186	0x3e3b91c4	0.18317324
187	0x3d06f840	0.032951593
188	0xbefacdc5	-0.48985115
189	0x3e1c29a4	0.1525026
190	0xbe9dce1d	-0.30821314
191	0x3e3c9a1c	0.18418163
192	0x3df97ba5	0.121817864
193	0x3ead78f1	0.33881333
194	0x3e376e34	0.17913133
195	0xbe118be3	-0.14213519
196	0x3d2af8d6	0.041741215
197	0xbdc5277a	-0.0962667
198	0x3e3ddd60	0.18541479
199	0xbdb9dbbf	-0.09075116
200	0x3e59c847	0.21267806
201	0x3e355316	0.17707476
202	0x3dd9966e	0.10624395
203	0xbd7d45b8	-0.061834067
204	0x3e826bf2	0.2547298
205	0x3ddefeab	0.10888418
206	0x3e798d6f	0.24370359
207	0x3c81e46a	0.015855987
208	0x3e7dc9cb	0.24784009
209	0xbdf9d5d1	-0.12198985
210	0xbe280faa	-0.16412225
211	0x3e1d68c0	0.1537199
212	0x3d95f204	0.073215514
213	0x3e6dc508	0.23219693
214	0xbe3f6acc	-0.18693084
215	0x3d448696	0.047979914
216	0x3e634196	0.22192988
217	0xbec82903	-0.3909379
218	0xbdf3155e	-0.1186931
219	0x3f08ccc2	0.53437436
220	0x3eca67c7	0.395323
221	0xbe32e0f2	-0.17468622
222	0xbe729d73	-0.23692875
223	0x3e104aa5	0.14090975
224	0xbccdb4de	-0.025110658
225	0x3f021acd	0.50822145
226	0x3bfe975a	0.0077695074
227	0x3c7e8003	0.01553345
228	0x3dc873ad	0.097876884
229	0xbe05be37	-0.13060842
230	0x3e44eb4a	0.1923038
231	0x3e9575b4	0.29191363
232	0xbe5595eb	-0.2085797
233	0x3e18a2c9	0.14905848
234	0x3e090bcc	0.13383406
235	0xbed0b508	-0.40763116
236	0x3eff09a8	0.49812055
237	0xbcbd2e99	-0.023093509
238	0x3e019e19	0.12657966
239	0xbe3574c7	-0.17720328
240	0xbc1c4a5f	-0.009539216
241	0x3d28f766	0.041251563
242	0x3ee9148a	0.45523483
243	0x3e147221	0.14496662
244	0x3e03bdd0	0.12865376
245	0xbe446d43	-0.19182305
246	0x3e48285e	0.19546649
247	0x3e61b5ec	0.22042054
248	0xbe8f9cb9	-0.28049257
249	0x3bd04541	0.006355912
250	0xbec321d8	-0.38111758
251	0x3d8a0990	0.06740105
252	0xbdfe134a	-0.12406023
253	0x3dd86229	0.105655976
254	0xbdcad572	-0.09903993
255	0x3ec6c956	0.38825482

fc3.bias f4 [4]
0	0x3e960ef3	0.2930828
1	0x3e7033a7	0.23457204
2	0x3e00dfc1	0.12585355
3	0x3e1bef59	0.15228023
