checkpoint_training_model_128_64.pth (torch_old, 54593 bytes, 6 tensors)

fc1.weight f4 [128, 37]
-0.11941778 0.055783026 -0.03261396 -0.26976398 -0.11279285 0.09784621 -0.11355115 0.09758005
-0.15982513 -0.07711548 -0.31689936 0.0041645183 0.011425168 -0.12688215 -0.15992458 0.09740213
0.08248848 -0.13101503 -0.36349654 0.028673846 0.2374666 0.08937386 -0.42238536 -0.058282334
-0.20552236 -0.00017873704 0.12311552 -0.1854441 -0.29007837 0.0681737 -0.048225004 0.108477995
-0.24401787 -0.18080097 -0.10044736 -0.15084387 -0.08643243 0.21106784 0.086886354 -0.07361765
-0.1369143 -0.5451675 -0.08632341 -0.16057649 -0.20992555 0.0029082946 0.25139418 0.14944121
-0.16005953 0.044827778 -0.13499461 0.24104373 0.16348413 -0.050131228 -0.07573114 -0.08822338
-0.36645 -0.13909246 -0.18238284 -0.049859688 0.070375144 0.10428768 -0.32980832 -0.087286636
0.23544997 0.061963364 -0.029668314 0.010417127 0.10320104 0.016861629 -0.044954266 0.0013580595
-0.13331553 -0.0026893283 0.17301805 0.089826 0.11949472 -0.1522761 -0.19782941 -0.41976136
0.18716799 0.14718556 0.05628442 -0.33976007 -0.04937007 0.015851837 0.03739596 -0.01048255
-0.060223944 -0.33672422 0.16795315 0.22586673 0.056466278 -0.1314389 -0.37943667 0.074904844
0.1958129 -0.010656578 -0.21036531 -0.52273726 0.30177826 0.18270162 -0.08274818 -0.44510096
-0.91731375 0.14738756 0.06650164 -0.14934358 -0.4561496 -0.06993191 0.0057624825 0.30712843
-0.59614646 0.041325834 -0.25093877 -1.2814637 0.0037274759 -0.06504666 0.16661169 -0.11648857
-0.0644132 -0.063111454 -0.021356588 0.03806167 -0.083803244 -0.050558083 -0.14442086 0.12490667
-0.02735192 -0.014240223 -0.2898393 0.041760705 -0.107864626 -0.048003294 0.18348977 0.15590563
-0.13927566 -0.06850994 0.15063255 0.2177923 0.29360673 0.0874223 0.21226795 -0.043706067
-0.24207225 0.0069860797 0.039279945 -0.02381639 -0.16332424 -0.25201103 0.02979865 -0.43418732
-0.08413597 -0.10100782 -0.10270855 0.19790916 -0.01616256 -0.44883642 -0.090990104 -0.09363413
0.05992098 -0.23627627 -0.20111167 -0.21463305 0.03982803 -0.050940886 -0.36009905 -0.0021491277
-0.06184581 -0.27225807 0.13968058 -0.08975699 -0.5679209 0.18767488 -0.44529992 -0.021796819
-0.23521829 -0.48991945 0.06673062 -0.41156673 0.1433178 -0.48140842 -0.4216907 -0.09814231
0.03091225 -0.019916654 -0.05288244 0.05921529 0.03190883 0.07356461 0.06264284 0.084440835
0.18946186 0.15033805 -0.044123746 -0.091052316 -0.012412561 -0.007897897 0.06351874 0.27401796
-0.14257094 0.09321247 0.017119456 0.00070048607 0.030727427 0.12466329 0.06562402 0.12653892
0.07908326 0.03848963 0.0050542117 0.016210865 0.09397335 0.007157942 -0.0075153587 0.32591885
-0.46605963 -0.30367085 -0.37565097 -2.215245 0.025303248 0.0060352697 0.17634434 -0.094570346
-0.16391121 -0.0014589188 -0.32821098 -0.10364863 -0.018011866 -0.061774198 0.079461515 0.053843085
0.0022063782 0.23250829 0.046974048 -0.19795246 0.15526956 -0.12262024 -0.23148197 0.07008077
0.20314854 0.00354087 -0.057466447 0.0804109 0.006607447 -0.07126062 0.22562717 -0.29734576
0.09197181 -0.007572874 -0.09682137 0.22345753 0.20815772 -0.22728308 0.051319964 -0.2817239
00000000: 4f91 f4bd be7c 643d 3796 05bd 811e 8abe
00000010: f0ff e6bd 9863 c83d 818d e8bd 0dd8 c73d
00000020: 33a9 23be b9ee 9dbd a240 a2be 8376 883b
00000030: a130 3b3c 65ed 01be 45c3 23be c57a c73d
00000040: b8ef a83d ce28 06be 381c babe 6ae5 ea3c
00000050: 722a 733e a409 b73d e542 d8be 75b9 6ebd
00000060: 7474 52be 5c6b 3bb9 fd23 fc3d 0fe5 3dbe
00000070: 2785 94be a79e 8b3d 9587 45bd b629 de3d
00000080: d2df 79be e423 39be 58b7 cdbd d176 1abe
00000090: 7c03 b1bd 2b22 583e 79f1 b13d dac4 96bd
000000a0: 4333 0cbe 1990 0bbf 54ca b0bd 2a6e 24be
000000b0: b9f6 56be 1699 3e3b bdb6 803e 1e07 193e
000000c0: a5e6 23be 559d 373d 073c 0abe 2bd4 763e
000000d0: 6268 273e 6756 4dbd ee18 9bbd 76ae b4bd
000000e0: 569f bbbe 416e 0ebe 91c2 3abe ac39 4cbd
000000f0: d820 903d c794 d53d a3dc a8be 56c3 b2bd
00000100: cc19 713e 4ccd 7d3d f70a f3bc 99ac 2a3c
00000110: 115b d33d 6621 8a3c f721 38bd ea00 b23a
00000120: de83 08be 713f 30bb a52b 313e b2f6 b73d
00000130: a6b9 f43d 44ee 1bbe cb93 4abe f6ea d6be
00000140: f7a8 3f3e d0b7 163e 7e8a 663d 08f5 adbe
00000150: 4538 4abd b6db 813c 822c 193d 00bf 2bbc
00000160: 62ad 76bd 1e67 acbe e9fb 2b3e 9c49 673e
00000170: 2f49 673d eb97 06be 8645 c2be b667 993d
00000180: 2d83 483e ed98 2ebc 016a 57be 1cd2 05bf
00000190: ae82 9a3e 2216 3b3e e177 a9bd 46e4 e3be
000001a0: 13d5 6abf c4ec 163e 0332 883d 86ed 18be
000001b0: 718c e9be 7638 8fbd 35d3 bc3b f03f 9d3e
000001c0: 0e9d 18bf 4745 293d 0c7b 80be 0107 a4bf
000001d0: ab48 743b 2f37 85bd 419c 2a3e 8f91 eebd
000001e0: 11eb 83bd 9440 81bd 03f4 aebc 8ee6 1b3d
000001f0: 09a1 abbd fe15 4fbd 10e3 13be 11cf ff3d
00000200: 2211 e0bc d34f 69bc d165 94be 460d 2b3d
00000210: 21e8 dcbd 1a9f 44bd bee4 3b3e baa5 1f3e
00000220: 479e 0ebe f04e 8cbd 6b3f 1a3e f204 5f3e
00000230: 9f53 963e 760a b33d c55c 593e 2205 33bd
00000240: cae1 77be 7ceb e43b 02e4 203d 971a c3bc
00000250: 783e 27be 9707 81be 4c1c f43c cd4d debe
00000260: 7b4f acbd 30dd cebd dc58 d2bd b3a8 4a3e
00000270: 5867 84bc e3cd e5be 0559 babd 40c3 bfbd
00000280: b46f 753d 68f2 71be 38f0 4dbe c4c8 5bbe
00000290: b722 233d 64a7 50bd e75e b8be 61d8 0cbb
000002a0: 0852 7dbd 6965 8bbe 6d08 0f3e 83d2 b7bd
000002b0: 4463 11bf d82d 403e 5afe e3be 3e8f b2bc
000002c0: 10dd 70be b9d6 fabe 10aa 883d e0b8 d2be
000002d0: e7c1 123e 2a7b f6be d8e7 d7be d6fe c8bd
000002e0: b03b fd3c 4028 a3bc 429b 58bd bb8b 723d
000002f0: d5b2 023d 0ba9 963d e44a 803d 51ef ac3d
00000300: 4a02 423e 38f2 193e 1abb 34bd a379 babd
00000310: 0e5e 4bbc 2e66 01bc 1d16 823d 154c 8c3e
00000320: 1efe 11be 2ee6 be3d 1a3e 8c3c d3a0 373a
00000330: 16b8 fb3c 784f ff3d e365 863d 6b93 013e
00000340: 67f6 a13d 4da7 1d3d cd9d a53b a6cc 843c
00000350: 1a75 c03d 2b8d ea3b 6643 f6bb d6de a63e
00000360: 5e9f eebe bf7a 9bbe 5355 c0be 93c6 0dc0
00000370: c248 cf3c 83c3 c53b 9c93 343e 19ae c1bd
00000380: 57d8 27be 3139 bfba 450b a8be bc45 d4bd
00000390: 9f8d 93bc f106 7dbd b8bc a23d 918a 5c3d
000003a0: e298 103b a716 6e3e dc67 403d 0db4 4abe
000003b0: fcfe 1e3e 5220 fbbd 9c09 6dbe 8286 8f3d
000003c0: 2c06 503e f10d 683b f061 6bbd 78ae a43d
000003d0: 4883 d83b 17f1 91bd cf0a 673e b43d 98be
000003e0: b75b bc3d df25 f8bb 484a c6bd 0dd2 643e
000003f0: 4c27 553e e5bc 68be e234 523d 1d3e 90be

fc1.bias f4 [128]
-0.055631552 -0.018356092 -0.023171999 -0.045119543 -0.061045825 -0.025936749 0.034072563 -0.01677881
-0.19322792 0.04540237 -0.08865994 -9.110521e-05 -0.050848335 -0.032624204 -0.1325458 -0.005783108
0.0012496008 0.0003843642 -0.07537606 -0.031031707 -0.12508677 0.055369098 0.1473475 -0.02985156
0.11287615 0.16191967 0.22811466 -0.085380726 -0.016927708 -0.12753913 0.036722064 0.0926027
-0.10676231 -0.011146811 -0.0013877386 -0.1239038 0.028232923 0.13788605 0.023664428 0.012597555
0.06375223 0.0893715 0.23066814 0.05209556 0.07233509 -0.06860721 -0.005559027 -0.13396086
-0.22932503 0.066511914 -0.067718096 0.08128074 0.11992407 0.08794144 0.13238114 0.07384049
-0.12634566 -0.054165836 0.04929664 -0.011718195 -0.18055288 0.02881689 0.11033874 -0.112430125
0.15741628 -0.062994346 -0.03451387 -0.15944313 -0.12787525 -0.07125303 -0.09104835 -0.07876032
0.060947455 -0.14678998 -0.15783344 -0.05955407 0.2837496 -0.11501292 0.05617213 0.056704156
-0.025789289 -0.0142650185 0.06774107 -0.14123191 -0.04424599 0.15484732 0.13073139 -0.1417711
-0.09131137 0.006262367 0.07848399 -0.1193088 -0.1371638 -0.16432524 -0.0026068417 0.03282797
-0.027559618 -0.18539403 -0.13498002 0.1550814 -0.06884937 -0.19760744 0.0953837 0.16130047
-0.22709131 -0.21141271 -0.061769795 0.19500293 -0.1577821 -0.06473168 0.13178948 -0.084439985
-0.042603258 0.0087707685 -0.022540271 0.0685422 -0.03163359 0.12513985 0.08127281 -0.009420881
0.010275408 0.05749729 -0.1620117 -0.189415 -0.03742536 0.095048234 0.13971208 0.0152226575
00000000: e9dd 63bd 845f 96bc 34d3 bdbc 45cf 38bd
00000010: 300b 7abd 4e79 d4bc ac8f 0b3d b773 89bc
00000020: 8add 45be d6f7 393d 5893 b5bd bd0f bfb8
00000030: 5846 50bd f5a0 05bd 16ba 07be 3a80 bdbb
00000040: a5c9 a33a 7d84 c939 c45e 9abd 3536 febc
00000050: bf16 00be b5ca 623d 43e2 163e 428b f4bc
00000060: 9c2b e73d 45ce 253e e496 693e 17dc aebd
00000070: faab 8abc 9e99 02be e069 163d 7ca6 bd3d
00000080: 33a6 dabd 1da1 36bc c8e4 b5ba 47c1 fdbd
00000090: bb48 e73c 0032 0d3e e7db c13c fa65 4e3c
000000a0: 8790 823d 6808 b73d 4534 6c3e 2762 553d
000000b0: 6b24 943d f081 8cbd 8028 b6bb 092d 09be
000000c0: 2ed4 6abe 6637 883d c9af 8abd 8476 a63d
000000d0: c09a f53d a41a b43d ec8e 073e af39 973d
000000e0: c260 01be ffdc 5dbd 46eb 493d acfd 3fbc
000000f0: dbe2 38be 6611 ec3c 47f9 e13d c441 e6bd
00000100: bc31 213e 2e03 81bd 6a5e 0dbd 0f45 23be
00000110: bbf1 02be 1ced 91bd 8f77 babd 174d a1bd
00000120: 0aa4 793d 1d50 16be 179f 21be f8ee 73bd
00000130: a147 913e e58b ebbd bf14 663d 9e42 683d
00000140: 0f44 d3bc d3b7 69bc d5bb 8a3d 199f 10be
00000150: 493b 35bd 4c90 1e3e 73de 053e 712c 11be
00000160: 7501 bbbd 8b34 cd3b 37bc a03d 2c58 f4bd
00000170: ab74 0cbe e044 28be 8cd7 2abb 9f76 063d
00000180: b5c4 e1bc efd7 3dbe 3438 0abe a9cd 1e3e
00000190: e600 8dbd 9b59 4abe 8858 c33d f32b 253e
000001a0: a08a 68be 937c 58be 5302 7dbd d9ae 473e
000001b0: a191 21be 0b92 84bd d2f3 063e dfee acbd
000001c0: c180 2ebd 45b3 0f3c 60a6 b8bc da5f 8c3d
000001d0: 3992 01bd a924 003e 5c72 a63d 0a5a 1abc
000001e0: 2f5a 283c 4782 6b3d 65e6 25be 01f6 41be
000001f0: 564b 19bd a6a8 c23d af10 0f3e 7468 793c

fc2.weight f4 [64, 128]
-0.028614044 0.15474196 -0.49415848 -0.13425043 0.22249022 0.47005233 0.2925178 0.06337327
0.13208863 0.121215835 0.049724795 0.41193092 -0.1951206 0.008076084 -0.40993103 0.09731969
0.007563516 -0.30182266 -0.21243247 -0.0773522 0.20091628 -0.2740124 -0.023722813 0.23213191
0.05800565 0.22272627 0.005098803 -0.030068817 -0.14728816 0.1430954 -0.18452966 0.06277747
-0.0071171485 -0.10997071 -0.027186852 -0.08773938 -0.08074652 0.00032873897 0.2769252 0.31631926
0.16472839 0.0017993436 0.13601276 -0.21909276 0.08664354 0.058301684 -0.09185768 -0.022291556
-0.1363404 -0.32660097 -0.09118076 -0.27172405 0.06071668 -0.30537593 0.0768826 0.3622597
0.022041442 -0.11087513 0.07520484 0.061401643 0.10888327 -0.08191654 -0.03741188 -0.14060588
-0.23459312 0.13909477 0.015804743 -0.2502842 0.16224855 -0.050209228 0.16984174 -0.18438138
-0.047662284 -0.015216997 -0.3113126 0.2095139 -0.19686231 -0.054070674 0.056853764 -0.0008344576
0.07937577 -0.014347879 0.4489519 -0.16632183 -0.10956605 -0.13082458 0.004112442 0.022169242
0.026436368 0.11294285 -0.004012824 0.028125359 -0.029870939 -0.20782188 0.044566315 -0.108606175
-0.06486601 -0.18274541 -0.20724255 -0.106073745 0.026566245 0.077052265 0.07470079 0.006889359
0.08211555 -0.045320667 0.107955895 -0.09814416 0.04311288 0.040113315 -0.023068877 -0.049681433
-0.029090947 -0.013223989 -0.13471654 0.17177424 -0.05017658 -0.089356616 0.015922481 0.21634814
-0.04292781 -0.371138 0.0027942818 -0.14416684 0.04073258 -0.1301832 0.22637253 0.07762436
-0.15787354 0.12160474 -0.25345117 0.109397285 -0.38423458 -0.14096488 -0.0154224 -0.021668393
-0.13998076 -0.0732074 0.08691339 -0.12897435 -0.05241074 -0.035563134 -0.0028068018 -0.07005737
0.12386739 -0.21008927 0.049622383 -0.10788484 0.065046035 0.0022163326 0.017772233 0.069645785
-0.11665298 0.23074335 0.04512886 -0.0031680486 -0.10060923 -0.07023919 -0.011475003 0.025531704
0.096239395 -0.17472209 0.09784678 0.06874043 0.14613165 -0.020320721 0.23752013 0.077862054
-0.15799429 0.015690882 0.18618639 0.10074807 -0.30584016 0.029300138 -0.06705477 -0.1262376
-0.31120828 -0.10530763 0.108660355 -0.017923417 0.1830934 0.08726823 0.0052367174 0.20198071
-0.17267257 -0.103016704 -0.29274556 -0.054555114 0.105175726 -0.2016414 -0.09413135 0.18954438
-0.17002274 0.23036501 0.051549435 -0.1016826 -0.11162429 -0.08277774 -0.041264277 0.09491836
0.07419378 -0.14681065 -0.19267188 0.39597148 0.024121964 -0.020554356 -0.10287856 0.11335817
-0.028867768 0.061209563 -0.26320884 0.027902659 0.05641479 -0.04255113 -0.080070876 -0.020285068
0.093072526 0.13500863 -0.2654057 -0.058676988 -0.048202388 -0.34807843 0.006741514 -0.034363363
-0.06939811 -0.11979817 -0.014903044 0.058609504 0.20534243 -0.028462019 0.13237338 0.14738007
-0.045748245 0.03607661 -0.29556507 0.047956154 0.038105913 -0.23658466 0.11561072 -0.20486267
0.0057911635 0.14150771 0.054298025 -0.260515 -0.07196155 0.0013225935 -0.15155064 -0.107338995
-0.065533705 0.114694394 0.07068177 -0.01405498 0.072634235 -0.06748007 0.07508136 0.08515669
00000000: 0068 eabc ad74 1e3e 5702 fdbe f278 09be
00000010: 7ad4 633e b3aa f03e e5c4 953e d8c9 813d
00000020: 3e42 073e 0240 f83d 3aac 4b3d 9ce8 d23e
00000030: b2cd 47be 8d51 043c 7be2 d1be 8c4f c73d
00000040: 5fd7 f73b 8088 9abe e687 59be d56a 9ebd
00000050: ffbc 4d3e 5a4b 8cbe 5856 c2bc fdb3 6d3e
00000060: 5597 6d3d 5b12 643e dc13 a73b e152 f6bc
00000070: b5d2 16be 9a87 123e 58f5 3cbe 7991 803d
00000080: f836 e9bb 5338 e1bd f6b6 debc b4b0 b3bd
00000090: 6e5e a5bd 995a ac39 24c9 8d3e 99f4 a13e
000000a0: 8fae 283e f4d7 eb3a ee46 0b3e da59 60be
000000b0: 2b72 b13d bfcd 6e3d e11f bcbd c89c b6bc
000000c0: d19c 0bbe 3e38 a7be fabc babd 6a1f 8bbe
000000d0: 0eb2 783d 3c5a 9cbe a074 9d3d 1a7a b93e
000000e0: 4190 b43c 8012 e3bd ff04 9a3d 4a80 7b3d
000000f0: 31fe de3d dcc3 a7bd 333d 19bd fdfa 0fbe
00000100: 2e39 70be dc6e 0e3e f378 813c 4025 80be
00000110: 7c24 263e 31a8 4dbd feea 2d3e 79ce 3cbe
00000120: 8739 43bd b650 79bc 5d64 9fbe d08a 563e
00000130: 4696 49be 3679 5dbd 7edf 683d 80bf 5aba
00000140: c48f a23d 5e13 6bbc 06dd e53e 4550 2abe
00000150: 2a64 e0bd e1f6 05be aac1 863b 459c b53c
00000160: 1591 d83c 954e e73d 027e 83bb 2767 e63c
00000170: e6b3 f4bc 42cf 54be 2b8b 363d ea6c debd
00000180: 78d8 84bd 9d21 3bbe 6437 54be 313d d9bd
00000190: 74a1 d93c 94cd 9d3d bafc 983d 22c0 e13b
000001a0: 332c a83d 2aa2 39bd fb17 dd3d ceff c8bd
000001b0: 2297 303d dc4d 243d f1fa bcbc c27e 4bbd
000001c0: 2350 eebc 6ea9 58bc 22f3 09be 96e5 2f3e
000001d0: f585 4dbd 9a00 b7bd dd6f 823c 5e8a 5d3e
000001e0: 12d5 2fbd cd05 bebe 4520 373b 79a0 13be
000001f0: 35d7 263d bf4e 05be 33ce 673e 85f9 9e3d
00000200: 9aa9 21be e80b f93d 5ac4 81be af0b e03d
00000210: 65ba c4be 1959 10be 3cae 7cbc ea81 b1bc
00000220: 1e57 0fbe c3ed 95bd a6ff b13d da11 04be
00000230: a5ac 56bd a6aa 11bd 52f2 37bb 3d7a 8fbd
00000240: 30ae fd3d a421 57be d740 4b3d baf2 dcbd
00000250: db36 853d e43f 113b 1397 913c 73a2 8e3d
00000260: c2e7 eebd fc47 6c3e 0ad9 383d 099f 4fbb
00000270: 360c cebd 90d9 8fbd a701 3cbc dd27 d13c
00000280: 2919 c53d 59ea 32be e563 c83d c8c7 8c3d
00000290: 89a3 153e a477 a6bc 7a38 733e 2476 9f3d
000002a0: 41c9 21be 2a8a 803c a5a7 3e3e 0155 ce3d
000002b0: 1597 9cbe d806 f03c 0354 89bd 6e44 01be
000002c0: b156 9fbe 87ab d7bd 5289 de3d 21d4 92bc
000002d0: d67c 3b3e b0b9 b23d c598 ab3b 08d4 4e3e
000002e0: 14d1 30be 6cfa d2bd bfe2 95be 2f75 5fbd
000002f0: 5f66 d73d 157b 4ebe f0c7 c0bd ec17 423e
00000300: 711a 2ebe cee4 6b3e 8025 533d f83e d0bd
00000310: 479b e4bd 6087 a9bd bb04 29bd 8f64 c23d
00000320: e9f2 973d 8855 16be c74b 45be c6bc ca3e
00000330: 6d9b c53c 9c61 a8bc ffb1 d2bd 5428 e83d
00000340: 197c ecbc e1b6 7a3d 4fc3 86be 1e94 e43c
00000350: 3213 673d 184a 2ebd 33fc a3bd df2c a6bc
00000360: cf9c be3d b43f 0a3e 42e3 87be 4857 70bd
00000370: de6f 45bd 5637 b2be ebe7 dc3b 99c0 0cbd
00000380: 9920 8ebd be58 f5bd e62b 74bc 8510 703d
00000390: 4945 523e 2e29 e9bc e38c 073e cdea 163e
000003a0: 8362 3bbd 11c5 133d 4e54 97be ac6d 443d
000003b0: f214 1c3d 4043 72be 50c5 ec3d 85c7 51be
000003c0: cdc3 bd3b 66e7 103e 9b67 5e3d 3962 85be
000003d0: 9460 93bd e05a ad3a 1730 1bbe 8cd4 dbbd
000003e0: 8936 86bd e5e4 ea3d 9bc1 903d dc46 66bc
000003f0: 42c1 943d fe32 8abd 42c4 993d a166 ae3d

fc2.bias f4 [64]
0.0006584176 -0.08187195 0.28089896 -0.003987817 -0.07582208 -0.13335972 -0.08085441 0.08471775
-0.04653896 -0.10499047 -0.025615517 0.22849357 -0.04315661 -0.11905318 0.17383774 -0.0478545
-0.04984963 -0.03626026 -0.07410789 -0.09008237 0.01948236 0.03527532 -0.050740194 0.026221123
-0.053331014 0.02179983 0.3346766 0.066934966 0.15004246 -0.09486189 0.008657554 0.1165515
-0.15849008 0.06665376 0.044014953 -0.0887025 -0.01956306 0.044066545 0.011200587 0.078856796
0.030565763 -0.041335814 -0.035129707 0.074456334 0.20008816 -0.0023395186 0.0018482109 -0.14868017
0.24260773 -0.07724611 0.03198137 -0.060253996 -0.090295054 0.12487111 0.083276466 0.3151424
-0.014306833 0.055973735 0.13399605 0.033119716 0.057108022 -0.061273243 -0.061778553 0.067327216
00000000: a899 2c3a 7bac a7bd fdd1 8f3e 3cac 82bb
00000010: 9b48 9bbd 738f 08be ff96 a5bd 8080 ad3d
00000020: a39f 3ebd 3e05 d7bd a2d7 d1bc 38fa 693e
00000030: fcc4 30bd 27d2 f3bd 8502 323e 1503 44bd
00000040: 202f 4cbd a385 14bd e1c5 97bd 1b7d b8bd
00000050: 7899 9f3c db7c 103d f3d4 4fbd aecd d63c
00000060: 9f71 5abd 8f95 b23c bb5a ab3e 3315 893d
00000070: bba4 193e f346 c2bd 6ad8 0d3c 8eb2 ee3d
00000080: 394b 22be c481 883d 0649 343d a8a9 b5bd
00000090: b642 a0bc 1f7f 343d ab82 373c ac7f a13d
000000a0: 0d65 fa3c be4f 29bd 2be4 0fbd 907c 983d
000000b0: e9e3 4c3e 9c52 19bb ab3f f23a 9d3f 18be
000000c0: 296e 783e 3533 9ebd e6fe 023d e5cc 76bd
000000d0: 9dec b8bd 6dbc ff3d da8c aa3d 585a a13e
000000e0: 3567 6abc b744 653d 4336 093e 8aa8 073d
000000f0: 1aea 693d a7f9 7abd 820b 7dbd dae2 893d

fc3.weight f4 [4, 64]
0.37301463 -0.042281464 0.17814253 0.25869903 -0.17431669 -0.23462108 -0.31840888 0.23780702
0.0028786056 -0.57013106 0.13825065 0.19761352 -0.10918644 -0.1275737 0.10725398 0.1142614
-0.116213046 0.25097412 0.28763646 0.08245193 -0.3630778 0.17440161 0.067848265 0.34530267
-0.23204635 0.010013634 0.10442009 0.22951254 0.056516416 -0.112176105 -0.24050345 0.20325822
-0.085487664 0.10386509 0.20855246 0.10021649 0.0095976135 0.031195084 0.1988219 0.22917318
0.12762609 -0.1540341 0.028463915 0.06459379 0.14349686 0.04072232 0.2871375 -0.19089445
0.16179377 0.0006321247 0.041869577 0.100985296 -0.0018884127 0.12439808 0.25763434 0.11397551
0.25580698 0.092408076 0.11132777 0.10830107 0.38967592 0.12550761 0.35734057 0.10015181
0.29334608 -0.01843992 0.08245551 0.21686956 -0.07337054 -0.11621121 -0.42414817 0.3246062
0.003794557 0.37071586 0.10179126 0.13241144 0.27715456 0.18685386 0.047481824 -0.25855947
-0.08616409 0.55720615 0.31957436 -0.007431517 -0.12152506 -0.52563196 -0.04482074 0.39339328
-0.17735009 -0.28739223 0.13491899 0.13371347 0.10827676 -0.08431368 -0.33040538 0.1570518
-0.11735607 -0.23751017 0.056316543 -0.13431115 -0.24807797 0.20591635 0.2105904 0.15340103
0.35264564 -0.08651781 -0.004362876 0.057320837 0.17241918 -0.02634184 0.28989053 0.049174786
0.16156937 0.013435535 0.07953565 0.19512108 -0.5000088 0.14456844 0.09614229 0.12524916
0.42897174 0.12668985 0.15557295 0.20105578 0.3586848 0.20292646 0.25961754 0.12312943
0.3810515 -0.17001724 0.064012885 0.31755888 0.12211231 -0.076864734 -0.35528016 0.4660854
0.180099 -0.18867193 -0.46181992 0.13284679 -0.59980875 -0.26066142 0.11718256 -0.13985851
-0.18936235 -0.10549178 0.43564823 -0.40102717 0.21714467 -0.28852025 0.015637102 0.1861976
0.0095203575 -0.07599105 0.17382027 0.22799891 -0.00091480085 -0.14017792 0.15348858 0.0042519253
-0.27769184 -0.41635343 0.17739722 -0.547563 -0.06317408 0.51471525 0.5275836 0.21394064
0.42711154 -0.32096818 -0.46573716 0.047749642 0.119148776 -0.35415286 0.023862667 -0.15212671
0.09240168 0.10957797 0.18798411 0.44867682 -0.19155273 0.12637118 0.06853791 0.1793777
0.36461163 0.2691567 0.09377208 -0.100694865 0.28347543 0.054146092 0.27581614 0.044723406
0.2243237 -0.20204014 0.08720744 0.3464143 -0.0091911405 -0.090701945 -0.31069764 -0.09270093
-0.36584088 -0.07062858 -0.019893654 0.11266337 0.051555604 0.37933454 0.13549986 -0.099239625
0.12444224 0.6843886 -0.11840174 0.25899652 0.22216749 0.082745604 -0.19050331 0.56174576
-0.27886888 -0.19035354 0.15788239 0.091356605 0.13542311 -0.15089329 -0.1527005 0.15579864
-0.23627566 0.03843502 -0.0064760614 -0.06195484 -0.29149398 -0.033286765 -0.010166202 0.19214836
-0.037865076 -0.12112975 -0.16046841 -0.054835472 0.10330337 -0.24423984 0.06694081 -0.055519596
0.033804573 0.23043217 0.19586906 0.5604579 -0.042959638 0.2267107 0.22374558 0.1617172
-0.048614234 0.05389799 0.07626978 -0.036602113 0.23814349 0.19672348 0.1244801 0.19390108
00000000: c6fb be3e 542f 2dbd ff6a 363e 3374 843e
00000010: 1380 32be 8240 70be 7d06 a3be af83 733e
00000020: fda6 3c3b 1cf4 11bf 9491 0d3e 335b 4a3e
00000030: 249d dfbd aea2 02be faa7 db3d e201 ea3d
00000040: 1b01 eebd ae7f 803e 1645 933e 8fdc a83d
00000050: 55e5 b9be 5696 323e 08f4 8a3d 83cb b03e
00000060: 8f9d 6dbe 3a10 243c 33da d53d 5605 6b3e
00000070: c27d 673d 96bc e5bd 8946 76be ec22 503e
00000080: 2814 afbd 38b7 d43d c78e 553e 4e3e cd3d
00000090: 4f3f 1d3c d58c ff3c f897 4b3e 60ac 6a3e
000000a0: 6ab0 023e 1dbb 1dbe 282d e93c c049 843d
000000b0: d7f0 123e 73cc 263d b003 933e d679 43be
000000c0: 44ad 253e 2cb5 253a 6f7f 2b3d 61d1 ce3d
000000d0: 9e84 f7ba 6cc4 fe3d a6e8 833e fe6b e93d
000000e0: 22f9 823e 7240 bd3d d0ff e33d f4cc dd3d
000000f0: 9a83 c73e 1185 003e 58f5 b63e 641c cd3d
00000100: 7531 963e 510f 97bc 6fde a83d 0e13 5e3e
00000110: 4b43 96bd 2500 eebd f329 d9be c932 a63e
00000120: 1aae 783b 78ce bd3e f077 d03d dd96 073e
00000130: 34e7 8d3e 9e56 3f3e 4d7c 423d e861 84be
00000140: cc76 b0bd 10a5 0e3f 409f a33e 1584 f3bb
00000150: 21e2 f8bd d18f 06bf f495 37bd d86a c93e
00000160: 439b 35be 1325 93be 3428 0a3e 2fec 083e
00000170: 35c0 dd3d a7ac acbd e52a a9be 30d2 203e
00000180: 6158 f0bd de35 73be 2dac 663d dd88 09be
00000190: 2708 7ebe bcdb 523e 03a5 573e 2915 1d3e
000001a0: f88d b43e 4030 b1bd 75f6 8ebb 41c9 6a3d
000001b0: a78e 303e d8ca d7bc 886c 943e 806b 493d
000001c0: 7172 253e b820 5c3c 96e3 a23d d2cd 473e
000001d0: 9400 00bf c009 143e 40e6 c43d 5141 003e
000001e0: 2fa2 db3e fcba 013e 844e 1f3e 91e1 4d3e
000001f0: 89a5 b73e f4cb 4f3e 97ec 843e 482b fc3d
00000200: 2f19 c33e 0019 2ebe 3019 833d 1497 a23e
00000210: 0516 fa3d 426b 9dbd 48e7 b5be bfa2 ee3e
00000220: df6b 383e 3733 41be a973 ecbe fd08 083e
00000230: 118d 19bf 6a75 85be 69fd ef3d 1237 0fbe
00000240: 34e8 41be 130c d8bd 490d df3e 6f53 cdbe
00000250: 2c5b 5e3e edb8 93be 6119 803c 95aa 3e3e
00000260: 46fb 1b3c 32a1 9bbd f1fd 313e 8c78 693e
00000270: 3fcf 6fba cd8a 0fbe 1c2c 1d3e bc53 8b3b
00000280: a02d 8ebe 472c d5be 9ea7 353e 172d 0cbf
00000290: 6961 81bd 61c4 033f b80f 073f 4113 5b3e
000002a0: 5dae da3e f155 a4be 1a75 eebe 2195 433d
000002b0: 4604 f43d 8653 b5be a47b c33c 1bc7 1bbe
000002c0: 183d bd3d 6a6a e03d e87e 403e f8b8 e53e
000002d0: 6626 44be 7267 013e 9b5d 8c3d caae 373e
000002e0: 60ae ba3e e8ce 893e 940b c03d 1c39 cebd
000002f0: b123 913e 4bc8 5d3d c637 8d3e e42f 373d
00000300: 1db5 653e 9ce3 4ebe d099 b23d 375d b13e
00000310: 7096 16bc f1c1 b9bd c313 9fbe fcd9 bdbd
00000320: 7f4f bbbe b8a5 90bd 04f8 a2bc 0ebc e63d
00000330: f82b 533d 2338 c23e 7ac0 0a3e 253e cbbd
00000340: 93db fe3d 1734 2f3f 9d7c f2bd 319b 843e
00000350: e07f 633e 8776 a93d 4d13 43be 92ce 0f3f
00000360: e7c7 8ebe 0aec 42be ecab 213e 2c19 bb3d
00000370: 5bac 0a3e c583 1abe 855d 1cbe ae89 1f3e
00000380: 3ff2 71be 0a6e 1d3d 2435 d4bb 5cc4 7dbd
00000390: b33e 95be b457 08bd 2490 26bc 8ac2 443e
000003a0: 6918 1bbd e012 f8bd d551 24be 299b 60bd
000003b0: b890 d33d 021a 7abe 4318 893d 8468 63bd
000003c0: aa76 0a3d 69f6 6b3e e691 483e 2b7a 0f3f
000003d0: 72f6 2fbd da26 683e 901d 653e 3299 253e
000003e0: b81f 47bd 24c4 5c3d 5533 9c3d 19ec 15bd
000003f0: e3db 733e e171 493e 6cef fe3d 018e 463e

fc3.bias f4 [4]
0.1595011 0.21394463 0.24129058 0.24949868
00000000: 4254 233e 4d14 5b3e e114 773e 957c 7f3e
